MAHOP(MAHOP-st)/checkpoint.pth (torch, 972459 bytes, 54 tensors)

near_tower.lstm_embedding.weight_ih_l0 f4 [256, 4]
0	0xbdd28ae8	-0.102804005
1	0xbde248bd	-0.1104903
2	0x3c682193	0.014168161
3	0xbdd3a9e9	-0.10335142
4	0xbdde207b	-0.10846039
5	0xbd902e5a	-0.07040091
6	0xbdaaacfa	-0.08333774
7	0x3d7ca519	0.061680887
8	0xbd7241f5	-0.059144933
9	0x3b9d2225	0.00479533
10	0xbd83aac2	-0.06429054
11	0x3d6bc099	0.057556722
12	0xbceadd40	-0.028669953
13	0x3dcb2d4a	0.099207476
14	0x3cb9aa9a	0.022664357
15	0x3d99a567	0.07502251
16	0x3dd2cb09	0.10292632
17	0x3b10fa90	0.0022122003
18	0xbdaddcf6	-0.084894106
19	0x3d19e409	0.037570987
20	0x3dcc3ca1	0.099725015
21	0xbc80ae85	-0.015708217
22	0xbb4aa74c	-0.003092247
23	0x3d80961b	0.0627863
24	0x3db8b4c0	0.0901885
25	0xbb6c33b1	-0.0036041553
26	0x3d762a9a	0.06009922
27	0x3dabb580	0.08384228
28	0x3dcc04d3	0.09961858
29	0x3d537d86	0.05163338
30	0xbd9bcfd8	-0.076080024
31	0x3ddd633b	0.10809942
32	0x3d02737e	0.031848423
33	0x3d7a0137	0.061036315
34	0xbd75c6f4	-0.06000419
35	0xbc2bbc37	-0.010481886
36	0xbdfdf54e	-0.12400304
37	0xbdac206e	-0.08404623
38	0xbddcc4c0	-0.107797146
39	0xbd00d5fc	-0.03145407
40	0xbde4ca38	-0.11171383
41	0x3d8f4ccd	0.069970705
42	0x3db77007	0.089569144
43	0xbdc4cc0d	-0.09609232
44	0x3d6546c0	0.055975676
45	0xbdd8f62e	-0.1059383
46	0x3d435b7c	0.04769467
47	0xbdde81b2	-0.10864581
48	0x3dd93409	0.10605628
49	0xbdc9e4dc	-0.098581046
50	0xbd3fa14a	-0.046784677
51	0x3d167206	0.036729835
52	0xbd44c865	-0.048042674
53	0xbd14c20f	-0.03631788
54	0xbe0631b5	-0.13104899
55	0x3db75308	0.08951384
56	0xbdbbd290	-0.09171021
57	0xbcf1e040	-0.029525876
58	0x3d5838ef	0.05278867
59	0x3dbfaf5e	0.093596205
60	0x3d308ee0	0.043105006
61	0xbd876bc6	-0.06612353
62	0x3d5dac0e	0.054119162
63	0xbd20cb8d	-0.03925662
64	0x3d5abdcb	0.053403657
65	0xbceb2dd6	-0.02870838
66	0x3d38a076	0.045074902
67	0x3d0ee1bb	0.034883242
68	0x3e049295	0.12946542
69	0x3db3b608	0.08774954
70	0xbd040c8c	-0.032238528
71	0xbd493a92	-0.049128123
72	0x3df0b775	0.11753742
73	0x3d8bad6d	0.06820188
74	0xbdd67088	-0.104706824
75	0xbdd34ed8	-0.103177726
76	0xbd6f7de3	-0.058469664
77	0xbddb5f4d	-0.107115366
78	0xbdb4b6ad	-0.08823905
79	0x3db7d45f	0.089760534
80	0x3da2d1f9	0.07950205
81	0xbdc21f63	-0.09478643
82	0x3d168151	0.03674442
83	0x3cecc5b8	0.028902873
84	0x3d88c4d9	0.06678171
85	0xbd8c38e2	-0.06846787
86	0xb9cab0b6	-0.00038660102
87	0xbdd28571	-0.10279358
88	0xbdad7cde	-0.08471082
89	0x3d88ea5e	0.06685327
90	0x3d4c482e	0.049873523
91	0xbd83959e	-0.064250216
92	0xbd19a3fa	-0.037509896
93	0x3ba62bae	0.005071125
94	0xbd2536c8	-0.040335447
95	0xbdc23245	-0.094822444
96	0x3c2ddd9d	0.010611919
97	0x3cbfa40d	0.023393655
98	0xbd7d4f47	-0.061843183
99	0x3e0104ba	0.1259946
100	0xbdcf5aa1	-0.10124708
101	0x3da2e115	0.07953087
102	0x3b9935b6	0.0046755923
103	0x3d31a6c2	0.043371923
104	0xbc8290c6	-0.015938174
105	0x3dea17a1	0.11430288
106	0xbd89ad9e	-0.06722568
107	0x3d3accf3	0.04560561
108	0xbd1e2258	-0.03860697
109	0xbb364cbe	-0.0027816738
110	0x3de16e9a	0.11007424
111	0xbd334bfd	-0.04377364
112	0xbcee71f0	-0.029107064
113	0x3dbc62da	0.09198542
114	0xbd3a0106	-0.045411132
115	0x3daef99b	0.08543702
116	0x3d00cd89	0.031446014
117	0xbd35b7ce	-0.044364743
118	0xbd720750	-0.059089005
119	0x3c1d80b8	0.0096132085
120	0x3cdb5c09	0.026777284
121	0xbd70e62d	-0.058813263
122	0xbdc885f7	-0.09791177
123	0x3bd9e6fd	0.0066498504
124	0xbbe981c0	-0.007126063
125	0xbd1ecbc3	-0.03876854
126	0xbd28a512	-0.04117305
127	0x3d6cf164	0.057847396
128	0x3d5ba223	0.053621422
129	0x3d280407	0.041019466
130	0xbb53dd69	-0.0032328016
131	0x3d9c4957	0.07631176
132	0x3dc374a5	0.095437326
133	0x3de8f777	0.11375325
134	0xbdd52f85	-0.10409454
135	0xbd5d063c	-0.053961024
136	0xbe040634	-0.12892991
137	0xbdf4b64c	-0.11948833
138	0x3ccc4b8f	0.024938373
139	0x3ddc3c94	0.10753742
140	0xbcb54d18	-0.022131488
141	0x3d70004f	0.058594044
142	0xbd87a1c9	-0.06622655
143	0x3dbd21ab	0.09234937
144	0xbbdbfbce	-0.006713367
145	0x3deb9fa4	0.115050584
146	0x3db9540e	0.09049235
147	0xbdda18b6	-0.106492445
148	0x3dcfc0ce	0.101441965
149	0x3da72f65	0.08163337
150	0x3ba8c8e3	0.0051509007
151	0xbc6e6ce2	-0.014552327
152	0xbd5ec14a	-0.054383554
153	0xbd124ae7	-0.035715964
154	0xbdc6a955	-0.09700266
155	0x3cbb2c46	0.02284826
156	0x3dc3ea5a	0.095661834
157	0x3af66d89	0.0018800955
158	0x3db712f8	0.08939165
159	0xbd92258c	-0.07136068
160	0x3d093fee	0.033508234
161	0xbdac1d75	-0.08404056
162	0x3dd549ed	0.10414491
163	0x3dfad23d	0.12247131
164	0xbc7c5b81	-0.015402676
165	0xbd316dc7	-0.043317582
166	0xbd1c0377	-0.03808924
167	0x3dc383a8	0.09546596
168	0xbd881fa5	-0.06646661
169	0x3c8aceb2	0.016944263
170	0xbdd8a94d	-0.105791666
171	0xbd4eb1ee	-0.050462656
172	0xbdd7e3cc	-0.10541496
173	0xbdd7836c	-0.105231136
174	0x3be31b19	0.0069307205
175	0x3dc4ec10	0.09615338
176	0x3dc40b51	0.09572471
177	0x3dc9a638	0.09846157
178	0xbc0a1806	-0.008428579
179	0x3dc59d3a	0.09649129
180	0xbdc45872	-0.09587182
181	0x3dd66405	0.10468296
182	0xbd7114fc	-0.058857903
183	0xbc1f4539	-0.009721094
184	0x3d16873b	0.03675006
185	0x3c90eb5c	0.017690353
186	0xbd647e08	-0.055784255
187	0xbd990ad6	-0.0747277
188	0xbd9c31fd	-0.07626722
189	0xbcc22e27	-0.023703648
190	0xbdd282b6	-0.102788374
191	0x3d5fcbdc	0.054637775
192	0x3cc822d7	0.024430675
193	0x3d1501b1	0.036378566
194	0xbda68b45	-0.08132032
195	0xbe01cb3f	-0.12675188
196	0xbdd7868e	-0.10523711
197	0x3dc7e5f9	0.09760661
198	0xbd61d0e4	-0.055130854
199	0x3da0068c	0.07813749
200	0xbcb05be0	-0.021528184
201	0x3d5807b8	0.052741736
202	0xbd40fca6	-0.047115944
203	0x3d392097	0.045197096
204	0x3df880d5	0.12133948
205	0xbd9bf91d	-0.07615874
206	0x3d892209	0.06695945
207	0xbdb23af5	-0.087026514
208	0xbd3181e8	-0.04333678
209	0x3d166720	0.03671944
210	0x3c4eca2c	0.012621444
211	0xbb934a4c	-0.004494941
212	0x3e002e35	0.12517627
213	0xbc705f2d	-0.014671129
214	0x3dec921c	0.11551306
215	0x3dc7e32f	0.09760129
216	0xbdb3de4c	-0.08782634
217	0x3d7da9d3	0.061929535
218	0xbc716dc8	-0.014735647
219	0xbce6e672	-0.028186057
220	0xbd85d958	-0.06535596
221	0xbdbb885e	-0.09156869
222	0xbc1dad48	-0.009623833
223	0x3d7c64dc	0.061619624
224	0x3d86793d	0.06566093
225	0xbdf8220e	-0.121158704
226	0x3ccbe30b	0.024888536
227	0xbd736c6a	-0.059429564
228	0x3de2856b	0.11060604
229	0xbc956fc8	-0.018241778
230	0xbd6ab588	-0.057302028
231	0x3d7031f5	0.058641393
232	0xbdbfa0b6	-0.09356825
233	0xbd8e8b4d	-0.06960163
234	0x3d22587e	0.039635174
235	0x3db50db8	0.08840507
236	0xbd4ecdc5	-0.050489206
237	0x3d672449	0.05643109
238	0xbd018026	-0.031616352
239	0xbe026b8e	-0.12736341
240	0xbdc8f0fc	-0.09811589
241	0xbcf6ffd7	-0.03015129
242	0x3d9074c0	0.07053518
243	0x3dcf83bf	0.101325504
244	0x3dd4348f	0.10361587
245	0xbdfc2a86	-0.12312798
246	0x3dd045fe	0.101696
247	0x3dc53072	0.09628381
248	0xbc672005	-0.014106755
249	0xbccefc9c	-0.025266938
250	0x3c3e1d05	0.0116035985
251	0x3ca26655	0.019824186
252	0x3df7a5bf	0.120921604
253	0xbc8d037b	-0.017213574
254	0xbdc1a766	-0.09455757
255	0xbbbe6e4e	-0.005811489

near_tower.lstm_embedding.weight_hh_l0 f4 [256, 64]
0	0xbe044ef0	-0.12920737
1	0xbcda3bea	-0.026639897
2	0x3db43c2f	0.088005416
3	0xbdd77fc0	-0.10522413
4	0xbd2bda8a	-0.041956462
5	0x3daedc0d	0.08538065
6	0xbdcd257c	-0.10016915
7	0x3da60565	0.08106498
8	0xbd8d07cb	-0.06886252
9	0xbdb87bd9	-0.09007997
10	0x3da06e45	0.07833532
11	0x3df6be66	0.12048034
12	0x3b85db62	0.0040849904
13	0xbad741f4	-0.0016422854
14	0x3cedc1a9	0.029023008
15	0x3de39a6b	0.11113437
16	0x3d48a2d4	0.04898341
17	0x3a1f8e79	0.0006086599
18	0x3dd6dd04	0.10491374
19	0x3d8a2a97	0.067464046
20	0xbaff474c	-0.0019476204
21	0xbd8a6cc2	-0.06759025
22	0xbce19286	-0.027535688
23	0x3e055802	0.13021854
24	0x3e010fa9	0.1260363
25	0x3bb9df46	0.005672368
26	0xbdac0a46	-0.08400397
27	0x3ddb0910	0.10695088
28	0x3dbd8488	0.09253794
29	0x3d3adccc	0.045620725
30	0x3dd39c03	0.10332491
31	0x3d24608c	0.040131137
32	0x3d3f2158	0.04666266
33	0x3df2ee72	0.11861886
34	0xbddd4a1d	-0.108051516
35	0xbda28890	-0.079362035
36	0x3d600560	0.054692626
37	0x3d74c731	0.059760276
38	0x3d80372a	0.06260522
39	0xbdc0b85c	-0.09410164
40	0x3de0cb3b	0.10976263
41	0x3b3eabec	0.0029094173
42	0x3d913d4a	0.07091768
43	0xbd1fa26b	-0.038973253
44	0xbdeb55e8	-0.11490995
45	0xbc00e1ed	-0.007866365
46	0x3d7cefa2	0.06175197
47	0xbd3eaa28	-0.046548992
48	0x3dce0341	0.100592144
49	0x3debbfd9	0.115112014
50	0x3d7fc900	0.062447548
51	0x3ca23366	0.0197999
52	0x3db629a4	0.08894661
53	0x3b553dc2	0.0032538031
54	0xbdc7a262	-0.09747769
55	0xbdbb7662	-0.09153439
56	0xbd422402	-0.04739762
57	0xbcd1c927	-0.025608612
58	0xbcca395c	-0.024685554
59	0x3de451f6	0.11148445
60	0x3de13eb0	0.10998285
61	0xbddd79ca	-0.10814245
62	0x3da9802f	0.08276402
63	0x3deb2b5d	0.1148288
64	0x3d8afa19	0.067859836
65	0x3df3317d	0.118746735
66	0x3d3f089e	0.046639077
67	0x3d079213	0.03309829
68	0x3b6f4f8e	0.0036515924
69	0xbdeaea13	-0.11470427
70	0x3cf1aa3c	0.02950012
71	0x3d8e3ef4	0.06945601
72	0x3c8c8296	0.017152112
73	0x3d5c7035	0.053817946
74	0x3d7d1ce5	0.061795134
75	0x3b9572b9	0.004560795
76	0x3dd33c24	0.10314205
77	0x3dc018b6	0.09379713
78	0x3d03e1ed	0.03219788
79	0x3c69ab53	0.014262038
80	0x3c500460	0.012696356
81	0x3dbcc825	0.09217862
82	0xbc9bd116	-0.019020598
83	0xbcfdcafd	-0.030980581
84	0xbd8e16fa	-0.06937976
85	0xbd0f0abb	-0.034922343
86	0xbd053c97	-0.032528486
87	0xbdd3e315	-0.10346047
88	0xbd38a9dc	-0.045083866
89	0xbd9327a0	-0.07185292
90	0x3cc12afa	0.023580063
91	0xbdccc918	-0.09999293
92	0x3af73d8c	0.0018862947
93	0xbdd83ecc	-0.105588526
94	0xbd8bd5b2	-0.068278685
95	0xbc0fbc64	-0.008772943
96	0xbdd4a57f	-0.103831284
97	0xbdab8ff8	-0.08377069
98	0x3ca2babe	0.019864436
99	0xbd9a3d41	-0.075312145
100	0x3d17d3be	0.037067167
101	0xbd78e393	-0.060763907
102	0xbdef7b83	-0.1169348
103	0xbcafe1f4	-0.021470048
104	0x3dce96e7	0.10087376
105	0x3dcd277a	0.10017295
106	0x3dcd4daf	0.100245826
107	0xbdc8c610	-0.098034024
108	0xbdd05215	-0.10171906
109	0x3d879f26	0.06622152
110	0xbd9f5fba	-0.0778193
111	0x3d91717f	0.07101726
112	0x3de3e5a5	0.111277856
113	0x3d57d802	0.052696235
114	0xbdcd2712	-0.10017218
115	0x3ddd3ea5	0.10802964
116	0x3bc2730b	0.0059341243
117	0xbca2eacb	-0.019887349
118	0x3c9d370f	0.019191293
119	0xbd95dbbb	-0.07317301
120	0x3b9d8fe6	0.004808414
121	0xbdab1f11	-0.08355535
122	0xbd4654d8	-0.048420757
123	0xbd53d4c4	-0.05171658
124	0xbdbaa857	-0.091141395
125	0x3d2c7f8a	0.04211382
126	0x3de77f4c	0.11303577
127	0x3d80705c	0.06271431
128	0xbd571f34	-0.052519992
129	0x3de206a0	0.1103642
130	0xbdaab3e1	-0.083350904
131	0xbcdb1038	-0.026741132
132	0x3dcd84ed	0.10035119
133	0x3b261537	0.0025342235
134	0x3b90c7d6	0.0044183536
135	0xbdd884b7	-0.10572188
136	0xbd67016a	-0.056397833
137	0x3d76581a	0.060142614
138	0x3d297082	0.04136706
139	0x3d62b117	0.055344667
140	0xbcc682d0	-0.024232298
141	0xbdd0982b	-0.10185274
142	0xbdba4f86	-0.09097199
143	0x3c8a0c8f	0.016851692
144	0x3d350e67	0.04420319
145	0xbdc22b67	-0.094809346
146	0x3d927da4	0.0715287
147	0x3d9cd3fb	0.076576196
148	0x3ca1c78c	0.019748472
149	0x3d7d8b16	0.06190022
150	0x3dd6d5f9	0.10490031
151	0xbdbc36eb	-0.09190162
152	0x3d148697	0.036261167
153	0xbd844e15	-0.064602055
154	0x3c594ab7	0.013262442
155	0x3d33773d	0.043814886
156	0x3dfca070	0.123352885
157	0x3c670584	0.014100436
158	0xbb4fd96d	-0.003171529
159	0xbd90cbda	-0.070701316
160	0xbd04fe3c	-0.03246902
161	0x3d4f44a4	0.05060257
162	0xba2afc05	-0.0006522539
163	0xbc3e3499	-0.01160922
164	0x3dc65199	0.09683532
165	0xbd3e5cbf	-0.04647517
166	0x3d7f64d0	0.062352
167	0x3dbbe7f6	0.091751024
168	0xbcdb3e0c	-0.026762985
169	0xbdb6b08a	-0.08920391
170	0x3ddff0a5	0.10934571
171	0xbddd393a	-0.10801931
172	0xbd796eb9	-0.06089661
173	0xbdc09c1b	-0.09404775
174	0x3e03364b	0.1281368
175	0x3dc6478d	0.09681616
176	0x3d92b782	0.071639076
177	0x3d573886	0.05254414
178	0x3dfa93e0	0.12235236
179	0xbcbb033d	-0.022828693
180	0x3cd9a4ab	0.026567778
181	0x3df908f2	0.12159909
182	0x3d45bed5	0.048277695
183	0xbd2400f3	-0.040039968
184	0xbbdacb0e	-0.006677038
185	0x3d4fd6e2	0.050742038
186	0xbd765ed9	-0.060149048
187	0xbce53a74	-0.027981974
188	0x3d6f06c5	0.058356065
189	0xbd3e1698	-0.046408266
190	0xbcbb48c1	-0.02286184
191	0xbdd1a8e1	-0.10237289
192	0xbc8d5072	-0.017250273
193	0x3d61b7fb	0.055107098
194	0xbe06724f	-0.13129543
195	0x3d60a14c	0.054841325
196	0x3c070ac7	0.008242316
197	0x3bb45976	0.0055038286
198	0xbd40d741	-0.047080282
199	0xbc8af4b0	-0.01696238
200	0x3dd654e3	0.104654096
201	0x3c9667cc	0.018360041
202	0xbd95c50e	-0.07312976
203	0xbd856cda	-0.065149024
204	0x3dd8fe1e	0.10595344
205	0xbca8e6dd	-0.020617897
206	0x3de60a39	0.112324186
207	0xbd8340e7	-0.064088635
208	0x3ddfa176	0.10919468
209	0x3db4de5e	0.08831476
210	0x3d43e876	0.047829114
211	0x3d2aacb6	0.041668616
212	0xbd9ef9fc	-0.077625245
213	0xbdb38b46	-0.08766799
214	0xbdb96fef	-0.09054553
215	0xbd986bb8	-0.07442421
216	0xbc71c0ae	-0.014755411
217	0xbdc40c49	-0.09572656
218	0x3dd92ae1	0.106038816
219	0x3df3d36b	0.11905559
220	0x3d884622	0.06654002
221	0xbdd660a5	-0.10467652
222	0xbd9a3213	-0.07529082
223	0xbbea5f1c	-0.007152451
224	0xbd48cad2	-0.04902155
225	0x3da91c47	0.082573466
226	0xbbe36758	-0.00693981
227	0xbd8541f8	-0.06506723
228	0xbc61ef28	-0.013789929
229	0xbda4bdc4	-0.080440074
230	0xbbb20258	-0.0054324083
231	0x3db6c86d	0.08924947
232	0x3ca85b46	0.020551335
233	0x3e08432d	0.13306876
234	0xbc45fc64	-0.0120841
235	0xbc023172	-0.007946359
236	0xbdb7e7b3	-0.0897974
237	0x3cd82c2b	0.026388248
238	0xbdb8a150	-0.09015143
239	0xbd739a04	-0.059473053
240	0xbd02e8c6	-0.03196027
241	0xbd284d26	-0.0410892
242	0x3d0c5c91	0.034267966
243	0xbe04501b	-0.12921183
244	0x3ddd3997	0.10802
245	0x3db2ef94	0.08737102
246	0x3ca8597f	0.020550488
247	0x3da8c46b	0.08240589
248	0x3ddacb00	0.106832504
249	0x38ef4764	0.000114097056
250	0xbddd8377	-0.108160906
251	0xba8a37cf	-0.0010545197
252	0x3ca07e19	0.019591378
253	0xbc878571	-0.016543122
254	0xbdf41599	-0.11918182
255	0xbc4364ae	-0.011925859

near_tower.lstm_embedding.bias_ih_l0 f4 [256]
0	0xbd9d49e1	-0.07680107
1	0xbcacafc1	-0.0210799
2	0x3e05637c	0.13026232
3	0xbdcd6977	-0.100298814
4	0xbde61103	-0.112337135
5	0x3dda1714	0.10648933
6	0x3d18a5c4	0.03726746
7	0x3c511ed6	0.0127636995
8	0x3d863a93	0.06554141
9	0x3c528cf3	0.012850988
10	0x3d7fe80d	0.06247716
11	0x3c6ba548	0.014382668
12	0xbc7e9f18	-0.015540861
13	0x3d0067a3	0.031348836
14	0xbd80e70d	-0.062940694
15	0x3dd3ee3e	0.103481755
16	0x3c583560	0.013196319
17	0x3db32f87	0.087492995
18	0xbda2126c	-0.0791367
19	0x39db09cc	0.00041778234
20	0x3dacd524	0.08439091
21	0xbc81b8a8	-0.015835121
22	0xbda43041	-0.08017016
23	0xbcbf502d	-0.02335366
24	0xbd8d3883	-0.068955444
25	0x3cd6cc5d	0.026220495
26	0xbdf1a562	-0.117991224
27	0x3d7c428f	0.061586913
28	0x3d84de4c	0.06487712
29	0x3d5efb6f	0.054439005
30	0x3cf1bea2	0.029509846
31	0x3d49e5ef	0.049291547
32	0x3de5dbdc	0.112235755
33	0xbca89d14	-0.020582713
34	0x3ddc4505	0.10755352
35	0xbd2d878f	-0.042365607
36	0xbd10ba4d	-0.03533392
37	0x3d75869d	0.05994283
38	0xbd338fed	-0.04383843
39	0xbdb01f30	-0.085996985
40	0xbd55e8f8	-0.05222413
41	0xbddb3eb1	-0.10705317
42	0xbc785c1d	-0.01515868
43	0x3cce33bb	0.025171151
44	0xbdcde71f	-0.100538485
45	0x3cce838a	0.025209207
46	0x3da6ec12	0.081504956
47	0x3d2566c2	0.0403812
48	0xbb75b6b3	-0.003749293
49	0xbd501fc0	-0.05081153
50	0xbce57719	-0.028010892
51	0xbd1d5b85	-0.038417358
52	0xbc2ec3d5	-0.010666807
53	0x3c1262fc	0.0089347325
54	0x3d6bf901	0.057610516
55	0x3d6e25fd	0.058141697
56	0x3baaa503	0.005207659
57	0x3d9ca6bb	0.07648989
58	0x3c04c981	0.008104683
59	0x3dadcfcb	0.08486899
60	0x3d48055b	0.048833232
61	0xbd4ff701	-0.05077267
62	0xbbc51e9e	-0.0060156127
63	0xbd3c0e47	-0.045912053
64	0x3d81a17c	0.06329629
65	0xbdf31322	-0.11868884
66	0xbd94b1b5	-0.072604574
67	0xbdce3891	-0.10069383
68	0x3c883bc3	0.01663006
69	0x3db9351e	0.090433344
70	0x3dea1174	0.1142911
71	0xbdc2396e	-0.0948361
72	0xbc9bde57	-0.019026918
73	0xbe0125cc	-0.12612075
74	0x3da1434d	0.07874165
75	0x3d6cee4d	0.05784445
76	0x3d6e2ad0	0.058146298
77	0x3da24e5d	0.07925103
78	0x3d3ccd30	0.04609412
79	0x3d34897d	0.04407643
80	0x3da9c754	0.08289972
81	0xbcdec358	-0.027192757
82	0xbd91033f	-0.07080697
83	0x3d8ef3f2	0.069801226
84	0x3da53d74	0.08068362
85	0xbd501465	-0.0508007
86	0xbdb27750	-0.08714163
87	0x3c5d71d5	0.013515909
88	0x3dbcd839	0.09220929
89	0x3cd6801f	0.02618414
90	0x3db7a466	0.089669034
91	0xbde97f2f	-0.114012115
92	0xbdbfe39a	-0.093695834
93	0xbc9c383d	-0.019069785
94	0x3cce4295	0.025178233
95	0xbdd62dcb	-0.10457953
96	0x3dec769f	0.11546063
97	0xbd7b5b71	-0.061366502
98	0xbd9b460d	-0.075817205
99	0xbcaef17b	-0.021355381
100	0xbd94f589	-0.072733946
101	0x3ca24c13	0.019811666
102	0xbd3eca7f	-0.046579834
103	0xbdba07cd	-0.09083519
104	0x3dbcd57d	0.09220407
105	0x3c57930d	0.013157618
106	0xbc1da8a1	-0.009622724
107	0x3db84f17	0.0899946
108	0x3de84b1c	0.11342451
109	0xbbf6a4bd	-0.0075269626
110	0xbdb77bbb	-0.089591466
111	0xbd7e56cf	-0.062094506
112	0x3da2723f	0.07931947
113	0x3da1abd8	0.07894105
114	0x3e04b256	0.12958655
115	0x3c617bcf	0.013762428
116	0x3dc7a737	0.097486906
117	0x3da533be	0.0806651
118	0xbd9e5db2	-0.07732715
119	0x3c6ec24c	0.014572691
120	0x3c75129c	0.01495805
121	0x3c96bb51	0.018399866
122	0xbd617297	-0.055040922
123	0xbdfe2fd7	-0.124114685
124	0xbdf57189	-0.11984546
125	0x3de30771	0.11085404
126	0x3dbea66f	0.093090884
127	0x3d722d8a	0.05912546
128	0x3ae26b49	0.0017274405
129	0xbc2ff893	-0.010740417
130	0xbc8ab697	-0.016932769
131	0xbd24de1d	-0.040250886
132	0x3dac1c62	0.08403851
133	0xbc819aed	-0.015820945
134	0x3c778b46	0.015108889
135	0xbbb23f26	-0.005439657
136	0x3c9f1990	0.019421369
137	0x3db55fdd	0.08856175
138	0xbdedfc9f	-0.11620449
139	0x3d34bf63	0.044127833
140	0xbced927f	-0.029000519
141	0xbd04e342	-0.032443292
142	0x3d89977f	0.06718349
143	0x3d4407f0	0.047859132
144	0xbd52270f	-0.05130678
145	0xbd296ead	-0.041365314
146	0x3d8d1bfc	0.06890103
147	0x3dc864c3	0.09784844
148	0xbd30d5ca	-0.043172635
149	0x3c8459c3	0.016156083
150	0x3da4bd8c	0.08043966
151	0x3d5c9afe	0.05385875
152	0x3dc1a831	0.09455908
153	0x3d20a18c	0.039216563
154	0x3c9c6d14	0.019094981
155	0xbdfece69	-0.12441713
156	0x3d334d22	0.04377473
157	0xbdd559da	-0.104175285
158	0x3da5eb70	0.08101547
159	0xbcc41dd4	-0.023940004
160	0x3d3e46c9	0.046454225
161	0xbcc18260	-0.023621738
162	0x3c1e559c	0.009663966
163	0x3dc987f8	0.09840387
164	0xbd0f428e	-0.03497558
165	0x3de36021	0.111023195
166	0xbd66aca9	-0.056317005
167	0x3ba666f7	0.0050781923
168	0x3d6466fb	0.055762272
169	0x3d48a57a	0.048985936
170	0xbd57f382	-0.05272246
171	0x3d3109b1	0.043222133
172	0xbe015a8e	-0.126322
173	0xbd2122ef	-0.039339956
174	0xbc868896	-0.016422551
175	0x3dbf005e	0.09326242
176	0xbda1a30c	-0.07892427
177	0xbdc430b7	-0.09579604
178	0x3dda6af1	0.10664929
179	0xbb77819e	-0.0037766467
180	0xbdbff25a	-0.09372397
181	0x3df63863	0.12022474
182	0xbe072ac7	-0.13199912
183	0xbd3703de	-0.044681422
184	0xbdd827ae	-0.10554443
185	0x3de8f6f1	0.11375225
186	0x3d8fbe32	0.07018699
187	0x3c2a3a04	0.010389809
188	0x3d4084a5	0.0470015
189	0x3db341b1	0.08752764
190	0xbd9f23e5	-0.07770518
191	0x3df7d35d	0.12100861
192	0x3de2e3c8	0.11078602
193	0xbdb431ba	-0.08798547
194	0xbd04d901	-0.032433514
195	0x3ac23dec	0.001481948
196	0xbc8db109	-0.017296331
197	0x3de3c8b6	0.11122267
198	0xbdcae527	-0.099069886
199	0x3dbcefc0	0.09225416
200	0xbd114daf	-0.035474475
201	0x3dc9132b	0.09818109
202	0x3dcb0e5d	0.09914849
203	0xbdb44733	-0.08802643
204	0xbd4a90fe	-0.04945468
205	0xbe07144a	-0.13191333
206	0xbbca9b90	-0.0061830953
207	0x3d8b1175	0.06790439
208	0xbcffbeca	-0.031218905
209	0x3cd9f0d6	0.026604097
210	0x3d81980d	0.063278295
211	0xbc58395e	-0.013197271
212	0x3de5b351	0.112158425
213	0xbdc0b5f8	-0.09409708
214	0xbdbcdd99	-0.09221954
215	0x3d804330	0.06262815
216	0xbdb1425d	-0.08655236
217	0x3c6a1028	0.0142860785
218	0x3d6c9e74	0.0577683
219	0xbcdceb5d	-0.026967699
220	0x3d171994	0.036889628
221	0x3db96e03	0.09054186
222	0xbda0a6c8	-0.07844311
223	0xbd4f34f8	-0.050587624
224	0xbcc2fe09	-0.023802774
225	0x3ddade7a	0.10686965
226	0x3df274df	0.11838698
227	0x3dda0d7e	0.10647105
228	0xbc832159	-0.016007112
229	0xbd12aa40	-0.035806894
230	0x3da7a866	0.08186416
231	0xbdde982f	-0.108688705
232	0x3de038ea	0.109483555
233	0x39c10486	0.000368152
234	0x3dcee3b8	0.10102028
235	0x3c90124b	0.017586848
236	0x3db53221	0.08847452
237	0x3deb5023	0.11489894
238	0xbdd456a9	-0.103680916
239	0x3dcb1467	0.09916001
240	0xbdbd1d67	-0.09234124
241	0x3ceb9382	0.02875686
242	0xbc9944fe	-0.018709656
243	0xbcf8d0dc	-0.03037303
244	0xbda2bc6e	-0.07946096
245	0x3d72cc9b	0.05927716
246	0x3d99b97b	0.07506081
247	0xbdf8bc5a	-0.121453
248	0xbdf7b47b	-0.12094971
249	0x3df37b2f	0.1188873
250	0x3d8669bb	0.06563135
251	0xba9d2cf6	-0.0011991549
252	0x3b93aeed	0.0045069368
253	0xbde2814a	-0.11059816
254	0xbd339e94	-0.043852404
255	0x3c9c366e	0.019068923

near_tower.lstm_embedding.bias_hh_l0 f4 [256]
0	0xbdc48331	-0.09595335
1	0xbdd8aa95	-0.10579411
2	0x3e0098d2	0.12558296
3	0xbc6e9113	-0.014560956
4	0xbc9b3c7c	-0.01894974
5	0xbdf1a578	-0.11799139
6	0x3d41d504	0.04732229
7	0x3da3013f	0.07959222
8	0xbdcb0ea7	-0.09914904
9	0x3d95e6f5	0.07319442
10	0xbdd29e14	-0.10284057
11	0x3caa0e7b	0.020758858
12	0xbdc65866	-0.096848294
13	0xbdef455f	-0.11683153
14	0xbdafdcfb	-0.085870706
15	0x3bcd1042	0.0062580416
16	0xbdea4863	-0.11439588
17	0xbdea6ebd	-0.11446903
18	0xbc4bf991	-0.012449638
19	0xbddde060	-0.10833812
20	0x3bcbe138	0.0062219165
21	0x3d8cb7fe	0.06871031
22	0xbdb04247	-0.086063914
23	0x3d32bd6a	0.04363767
24	0x3d6a5f2c	0.05721967
25	0x3dbde70c	0.09272584
26	0xbda616b8	-0.08109802
27	0x3dcc7d14	0.09984794
28	0xbd9d00a5	-0.076661386
29	0x3b6e30f7	0.0036345103
30	0x3d8fcbbd	0.07021282
31	0x3d80c372	0.06287278
32	0xbd01f586	-0.03172829
33	0x3cb0ee3c	0.021597974
34	0xbda3a48f	-0.079903714
35	0x3d3ea489	0.04654363
36	0x3d7da6aa	0.06192652
37	0xbde80076	-0.11328213
38	0xbdc5f252	-0.096653596
39	0xbdea8ca2	-0.11452605
40	0xbd3e8d37	-0.04652139
41	0x3ca11c42	0.019666795
42	0x3d90c438	0.07068676
43	0xbe0b916b	-0.13629691
44	0xbd00669e	-0.031347863
45	0xbdb0cfea	-0.086334065
46	0xbd601903	-0.054711353
47	0xbdc28edb	-0.09499904
48	0x3db356ba	0.08756776
49	0x3d702d1c	0.05863677
50	0xbdc3ff85	-0.09570221
51	0xbd884c7f	-0.066552155
52	0xbc4203c5	-0.011841719
53	0xbdea0e91	-0.114285596
54	0x3d881adc	0.06645748
55	0x3df8216c	0.1211575
56	0x3dbb56c9	0.09147412
57	0x3b9a5620	0.004709974
58	0xba45c9c3	-0.00075450185
59	0xbdedd9e5	-0.11613826
60	0xbdc220ad	-0.09478889
61	0x3db97afe	0.09056662
62	0xbde52737	-0.1118912
63	0x3d9f3422	0.077736154
64	0x3ded3ea5	0.11584214
65	0xbdc71712	-0.09721197
66	0xbc8942d5	-0.0167555
67	0x3db7814b	0.089602076
68	0xbd88c541	-0.06678248
69	0x3cccab3d	0.024983997
70	0xbdacd27e	-0.08438586
71	0x3cbdfcab	0.02319177
72	0xbdf40126	-0.119142815
73	0xbdde86e1	-0.1086557
74	0x3d9915b5	0.074748434
75	0xbc3f1372	-0.011662351
76	0x3d99bef5	0.07507125
77	0x3cb9e803	0.02269364
78	0xbd34eecd	-0.04417305
79	0x3c441414	0.011967678
80	0xbd379845	-0.04482295
81	0xbdd68a50	-0.104756
82	0xbbabccfe	-0.005242943
83	0x3d969870	0.07353294
84	0x3d47da7d	0.04879235
85	0xbd4cb021	-0.049972657
86	0x3c87bac4	0.016568549
87	0xbb81bf77	-0.003959592
88	0x3c7c3cd3	0.015395361
89	0xbbcee50d	-0.006313926
90	0xbc69d445	-0.0142718
91	0xbd595c87	-0.053066757
92	0x3df1779c	0.11790392
93	0xbbb4fd52	-0.005523362
94	0xbc1999c2	-0.009375038
95	0xbd905107	-0.07046705
96	0x3db85d0f	0.090021245
97	0x3dc163fa	0.09442897
98	0x3d361c58	0.044460624
99	0xbcdb2f3b	-0.02675592
100	0x3d64248d	0.05569892
101	0x3d7063c2	0.058688886
102	0x3df06857	0.11738651
103	0xbde332af	-0.110936515
104	0x3d33f53e	0.043935053
105	0x3d34e110	0.04415995
106	0x3c503f4f	0.012710406
107	0xbdcdd8b3	-0.10051098
108	0x3d489868	0.04897347
109	0xbdc408a4	-0.095719606
110	0x3d8f779d	0.07005236
111	0xbdb6fa6e	-0.089344844
112	0xbe0b7cd1	-0.13621832
113	0xbd8af7aa	-0.067855194
114	0xbd977249	-0.07394845
115	0xbcf7cf91	-0.030250343
116	0xbdca2e1f	-0.09872078
117	0x3d178e4f	0.03700095
118	0x3ad71094	0.0016408139
119	0x3da5fc1e	0.08104728
120	0xbd826e26	-0.063686654
121	0x3dd2bda6	0.10290079
122	0x3ca54bbe	0.020177718
123	0xbd64c786	-0.055854343
124	0xbd460b4b	-0.048350614
125	0x3dcaca3d	0.09901855
126	0xbdfa037c	-0.12207696
127	0x3da96cc4	0.082726985
128	0xbdfe6179	-0.12420935
129	0xbdd5e851	-0.104447015
130	0x3dbd8548	0.09253937
131	0x3ddc2e7b	0.10751053
132	0x3dbf35ee	0.09336458
133	0x3d3f6f73	0.046737146
134	0xbd5c2985	-0.053750534
135	0xbd1e6520	-0.03867066
136	0xbc6fd5ae	-0.014638348
137	0xbd871987	-0.06596666
138	0x3c8beec5	0.017081628
139	0xbbc7f31f	-0.0061019803
140	0x3c2099bd	0.009802279
141	0x3da11e4a	0.07867105
142	0x3d833ac2	0.064076915
143	0x3d8479a8	0.064685166
144	0xbc67e3e9	-0.014153459
145	0x3d5c831f	0.053835984
146	0x3c7fa6a4	0.015603695
147	0x3dca4b27	0.098776154
148	0x3c921eec	0.01783701
149	0x3d5cdc6b	0.053921144
150	0x3d754c0c	0.059886977
151	0xbce28a90	-0.027653962
152	0xbd1f96ca	-0.038962163
153	0x3ce6fd21	0.028196873
154	0xbad6a9f7	-0.0016377558
155	0xbd8acc6c	-0.06777272
156	0x3da52b52	0.08064903
157	0xbd4ddaae	-0.050257377
158	0x3d850ddc	0.06496784
159	0xbd06c3ee	-0.032901697
160	0xbd42b1f3	-0.047532987
161	0x3d1c3dc9	0.03814486
162	0xbd815e1a	-0.063167766
163	0xbcf13781	-0.029445412
164	0xbdf8ae33	-0.12142601
165	0x3dbffdf9	0.09374613
166	0xbb3844c5	-0.0028117162
167	0x3bbcd095	0.0057621696
168	0x3ccb4099	0.024811076
169	0xbdd703cf	-0.10498773
170	0x3de2d14f	0.11075079
171	0xbcd38c3b	-0.025823703
172	0x3dc1a834	0.0945591
173	0x3cbde656	0.023181122
174	0xbdd18828	-0.10231048
175	0xbd9ce8b0	-0.07661569
176	0x3d2e8334	0.042605594
177	0xbcc30a8b	-0.023808738
178	0x3a8ce307	0.0010748812
179	0x3d93e69f	0.07221722
180	0xbc2f5499	-0.010701322
181	0x3d305d0f	0.043057498
182	0x3cd0dccd	0.025495911
183	0xbd26fe7a	-0.04077003
184	0x3b80b389	0.0039276523
185	0xbd742b7e	-0.05961179
186	0x3cacc345	0.021089206
187	0xbdcf0707	-0.10108762
188	0x3dbb0663	0.091320775
189	0xbd9d42c1	-0.07678748
190	0x3d2e2f48	0.04252556
191	0x3db8f22c	0.090305656
192	0x3cd44891	0.025913509
193	0x3db4c808	0.088272154
194	0xbcf83507	-0.030298723
195	0x3d92ca6d	0.07167516
196	0xbde49f17	-0.111631565
197	0x3d5853a4	0.05281414
198	0x3ca253e3	0.01981539
199	0x3d42908d	0.047501136
200	0x3d2fda37	0.042932715
201	0xbdc25075	-0.09488002
202	0x3c4c1983	0.012457254
203	0x3dfb9ead	0.122861244
204	0xbc48ca9c	-0.012255337
205	0x3dde51a4	0.108554155
206	0x3da248e5	0.0792406
207	0xbd96b04d	-0.073578455
208	0xbdac78be	-0.08421467
209	0xbda4fdae	-0.08056198
210	0xba4b3598	-0.00077518215
211	0xbdc64e65	-0.09682921
212	0xbdd4a2d1	-0.10382617
213	0x3dd09d0e	0.10186206
214	0x3d15a597	0.036534872
215	0xbd120ee6	-0.03565874
216	0x3dab2d89	0.083582945
217	0x3d46c94d	0.04853182
218	0xbd2d9494	-0.042378023
219	0xbd6aea90	-0.057352602
220	0xbd7f583f	-0.062340017
221	0x3d372f86	0.044723056
222	0x3d0eda7b	0.034876328
223	0xbdec6b53	-0.11543908
224	0x3c8d62ce	0.017259028
225	0x3db4f950	0.08836615
226	0x3d840c59	0.06447668
227	0xbc69c3ec	-0.014267903
228	0xbdd35c08	-0.10320288
229	0xbd297a65	-0.04137649
230	0xbc4f4f31	-0.012653158
231	0xbd200062	-0.039062865
232	0x3d91ae3c	0.07113311
233	0x3dba8f5a	0.091093734
234	0x3dd53674	0.10410777
235	0x3cc6ded5	0.024276176
236	0x3cd15731	0.025554271
237	0xbdc4c9e9	-0.09608824
238	0xbdd16887	-0.10225015
239	0xbc2d5eea	-0.010581711
240	0x3cd35a07	0.025799764
241	0x3d26b44e	0.040699296
242	0x3df83e3e	0.12121247
243	0x3c8a6a80	0.016896486
244	0x3d7e9153	0.06215031
245	0xbc422ef5	-0.011852016
246	0x3d3659b8	0.044519156
247	0x3ce093d4	0.02741424
248	0x3d953de7	0.072871976
249	0x3dd9d657	0.10636585
250	0xbb35cc86	-0.0027740314
251	0xbda68d06	-0.08132367
252	0xbd8cc637	-0.06873744
253	0xbcbf9963	-0.02338857
254	0x3d204469	0.03912774
255	0xbca0c42a	-0.019624788

season_tower.lstm_embedding.weight_ih_l0 f4 [256, 4]
0	0x3c88fd43	0.016722327
1	0xbd4027cb	-0.04691295
2	0x3d920021	0.07128931
3	0xbd6da515	-0.058018763
4	0xbd52aacf	-0.051432427
5	0x3c2eab0e	0.0106609
6	0x3deb562c	0.11491045
7	0xbdbb9882	-0.09159948
8	0xbbfe6955	-0.0077640214
9	0xbddf8e42	-0.109158054
10	0x3deeb6ec	0.11655983
11	0x3ddcfdbc	0.107905835
12	0x3dd33c46	0.103142306
13	0x3d67d397	0.056598272
14	0x3d0e85cf	0.03479558
15	0x3c954814	0.018222846
16	0xbdeb66ec	-0.1149424
17	0xbd03e2c0	-0.032198668
18	0x3da07410	0.07834637
19	0xbdb98910	-0.09059346
20	0x3d4b91da	0.04969964
21	0x3dc2d1fd	0.09512708
22	0x3dcf8f91	0.10134805
23	0xbbd15bca	-0.006389116
24	0xbd9be551	-0.07612098
25	0xbd196f8c	-0.037459895
26	0x3da8ab85	0.0823584
27	0xbc3bf855	-0.011472781
28	0x3dae584d	0.08512936
29	0xbc66dbf2	-0.014090525
30	0x3db26cd1	0.08712161
31	0xbca46d9c	-0.020071797
32	0xbdb98ddf	-0.09060263
33	0xbc851861	-0.016246976
34	0xbdcbf886	-0.099595115
35	0x3d8c4b23	0.06850269
36	0xbd346fa1	-0.04405177
37	0xbdcb1c4b	-0.09917506
38	0x3d7bdedd	0.061491836
39	0xbd8c76f5	-0.06858627
40	0x3ddc2522	0.1074927
41	0x3d2ca59c	0.042150125
42	0xbde38919	-0.11110134
43	0x3c3120f8	0.010811083
44	0xbd9faf7f	-0.07797145
45	0xbdf3b683	-0.11900046
46	0xbe098219	-0.13428535
47	0xbdf5dc30	-0.12004888
48	0xbd795e56	-0.06088098
49	0xbdc1fd30	-0.0947212
50	0xbcc407f7	-0.02392958
51	0x3d573d15	0.052548487
52	0xbdd39e80	-0.10332966
53	0xbd7fdc98	-0.062466234
54	0xbe00fec8	-0.12597191
55	0x3da6f954	0.08153024
56	0xbdeb07e7	-0.114761166
57	0x3c8d1f3d	0.01722681
58	0x3df9455a	0.12171431
59	0xbd000b94	-0.03126104
60	0x3d7af9ef	0.06127351
61	0xbb81a247	-0.0039561125
62	0x3db7441c	0.08948538
63	0x3dff8cd8	0.12478036
64	0x3bba7c58	0.0056910925
65	0xbce2f495	-0.027704516
66	0xbd35aab8	-0.044352263
67	0x3c4db4e5	0.012555336
68	0x3ca3de63	0.020003503
69	0xbdacffa4	-0.08447197
70	0x3cb74ac6	0.022374522
71	0x3b26ccf3	0.002545175
72	0xbdf6d33e	-0.1205201
73	0x3d23adb3	0.039960574
74	0xbdd485b2	-0.10377063
75	0xbd64bfc8	-0.05584696
76	0x3d7df098	0.061997026
77	0xbd31b81a	-0.043388464
78	0xbddff588	-0.10935503
79	0x3dd4800e	0.10375987
80	0x3dedb748	0.11607224
81	0xbd97209c	-0.073792666
82	0xbc0b2eb6	-0.0084950235
83	0x3c929fe7	0.017898513
84	0x3d6bb80f	0.05754858
85	0xbde0f5b0	-0.10984361
86	0xbda89996	-0.08232419
87	0x3db61644	0.088909656
88	0xbe005eb0	-0.1253612
89	0xbdefdce8	-0.117120564
90	0xbda36a36	-0.079792425
91	0x3d28a239	0.041170333
92	0x3d5aabb5	0.05338641
93	0x3b94edfb	0.004544971
94	0x3deeb838	0.11656231
95	0x3dd6f4dd	0.10495923
96	0xbd83665b	-0.06416007
97	0xbce98ef4	-0.028510548
98	0x3e0065ea	0.12538877
99	0xbdc89045	-0.09793142
100	0x3d342c5f	0.043987628
101	0xbc9a26e3	-0.01881737
102	0x3ddae8ba	0.1068892
103	0x3de63be1	0.1124189
104	0xbdab243c	-0.083565205
105	0x3df41ea5	0.119199075
106	0xbb9589e4	-0.004563557
107	0x3d8ec53c	0.06971213
108	0x3d4eca77	0.050486054
109	0xba325ee0	-0.00068042986
110	0x3da29bd0	0.07939875
111	0xbdb685cf	-0.08912241
112	0x3db65c47	0.08904319
113	0xbd654905	-0.05597784
114	0x3cec34cf	0.028833775
115	0x3ba200bc	0.004943935
116	0xbdcfd1aa	-0.10147412
117	0x3c2c55f3	0.010518539
118	0x3e07d52e	0.13264915
119	0xbcbff139	-0.023430454
120	0xbddef121	-0.108858354
121	0xbd6c756c	-0.05772917
122	0x3cb0e21f	0.021592198
123	0x3db47bae	0.088126525
124	0xbd8ac6c3	-0.06776192
125	0x3d2c0f41	0.042006735
126	0xbcecefea	-0.028922994
127	0x3cf17c14	0.02947811
128	0x3dad999b	0.084765635
129	0x3d0cf8dd	0.034417022
130	0x390a79b6	0.00013206046
131	0x3d622f99	0.055221174
132	0xbdddfbce	-0.108390436
133	0x3d623d30	0.055234134
134	0x3db9ce0a	0.09072502
135	0x3d4c9415	0.04994591
136	0xbd98c481	-0.07459355
137	0x3dcf8df8	0.101345
138	0xbd89df73	-0.06732073
139	0xbd7393e0	-0.059467196
140	0x3d980a98	0.074238956
141	0xbd823979	-0.06358618
142	0x3d6df396	0.05809363
143	0xbdc74cb9	-0.097314306
144	0xbd97bf91	-0.07409585
145	0x3d05aaca	0.03263358
146	0xbd3f7268	-0.046739966
147	0xbd789231	-0.060686294
148	0xbdc260cc	-0.09491119
149	0x3da006ed	0.07813821
150	0xbdb91f1f	-0.09039139
151	0xbdf36258	-0.11883992
152	0xbc94da29	-0.018170433
153	0xbdde1de2	-0.108455434
154	0x3d436c3f	0.047710653
155	0x3de51159	0.111849494
156	0x3de1dc91	0.11028398
157	0xbc09c7b2	-0.0084094275
158	0x3dc04810	0.09388745
159	0x3db38291	0.08765138
160	0x3d9c6976	0.076373026
161	0x3cfae84d	0.030628348
162	0xbcfafde5	-0.030638644
163	0x3e07dc7c	0.13267702
164	0xbd424b79	-0.047435258
165	0xbaa1c05a	-0.001234065
166	0xbc1cf65d	-0.009580222
167	0xbdb8b5de	-0.090190634
168	0x3bb59b69	0.005542208
169	0xbb39fa5f	-0.0028377993
170	0xbd8ddee1	-0.069272764
171	0x3cdfca2e	0.027318086
172	0x3d9d0942	0.076677814
173	0xbdd33aac	-0.10313925
174	0xbde4105f	-0.11135935
175	0xbb22fa71	-0.0024868513
176	0xbd9479aa	-0.07249768
177	0xbd02e9bd	-0.03196119
178	0xbdce4a35	-0.100727476
179	0x3de7c005	0.11315922
180	0xbd975689	-0.07389552
181	0xbd8b667a	-0.06806655
182	0x3dfaa494	0.12238422
183	0x3db02445	0.08600668
184	0x3d9594e0	0.07303786
185	0xbc926b59	-0.017873453
186	0x3dc559b7	0.096362524
187	0x3da73990	0.08165276
188	0x3d4760f0	0.04867643
189	0x3dad4c5e	0.084618315
190	0xbda240d2	-0.0792252
191	0xbd936c91	-0.07198442
192	0xbbb2851a	-0.005447996
193	0x3dcd142f	0.10013615
194	0xbc8c73a3	-0.017144984
195	0x3dd63a9b	0.10460397
196	0x3dde3128	0.108492196
197	0xbcf53461	-0.029932203
198	0x3d443456	0.047901474
199	0x3c05a9c5	0.008158152
200	0xbdb00fa1	-0.08596731
201	0xbd64cfcb	-0.05586223
202	0x3dc5ff14	0.09667793
203	0x3bf4273e	0.007450967
204	0xbd3d17eb	-0.046165388
205	0xbd8bd687	-0.06828027
206	0xbdcda086	-0.10040383
207	0xbd1ab5c1	-0.03777099
208	0xbdc4a753	-0.09602227
209	0x3d698468	0.057011038
210	0x3d4a2773	0.049354028
211	0x3d23022d	0.039796997
212	0x3dad0eaa	0.084500626
213	0x3d995fdd	0.074889876
214	0xbdd3f02e	-0.10348545
215	0x3dafd293	0.08585086
216	0x3c964bac	0.01834663
217	0xbbdd1637	-0.006747033
218	0x3d298413	0.04138572
219	0x3d3b0cc1	0.04566646
220	0xbd3c99e6	-0.046045206
221	0xbd2e510d	-0.042557765
222	0x3df4c109	0.11950881
223	0xbd0042e8	-0.031313807
224	0xbc77e8f8	-0.015131228
225	0xbd94d370	-0.07266891
226	0xbdc71f7e	-0.097228035
227	0x3d238b92	0.039928026
228	0xbdd42e22	-0.10360362
229	0xb890f5f2	-6.912266e-05
230	0x3dd27f99	0.102782436
231	0x3df4f25e	0.1196029
232	0x3d91171e	0.070844874
233	0xbdc67811	-0.096908696
234	0xbd14bc50	-0.0363124
235	0xbcae0151	-0.021240862
236	0xbc97c6e3	-0.018527454
237	0xbd6abc5e	-0.057308547
238	0xbda72ac0	-0.08162451
239	0x3da92598	0.082591236
240	0xba1b07b2	-0.00059139275
241	0xbdf9937c	-0.121863335
242	0x3ccc8723	0.024966782
243	0xbca087cc	-0.019596003
244	0x3def44bb	0.11683031
245	0xbcc6518a	-0.024208803
246	0x3cea3327	0.028588844
247	0xbc878f62	-0.016547862
248	0xbdc0c0a9	-0.09411747
249	0x3df834f0	0.12119472
250	0x3d9433bc	0.0723643
251	0x3da2b654	0.079449326
252	0x3c47d8ec	0.012197714
253	0x3d921562	0.07132985
254	0xbd2ac713	-0.04169376
255	0x3bc99fab	0.006153067

season_tower.lstm_embedding.weight_hh_l0 f4 [256, 64]
0	0xbdbaad83	-0.09115126
1	0x3d142021	0.036163453
2	0xbd05396f	-0.032525476
3	0xbb882e71	-0.004155927
4	0x3d641b5e	0.055690162
5	0x3d8566db	0.06513759
6	0x3d26d551	0.040730778
7	0xbc2c888a	-0.0105306
8	0x3dcea3f6	0.10089867
9	0xbde104c6	-0.109872386
10	0x3b4a52e5	0.0030872163
11	0x3df340e6	0.11877613
12	0x3c55d1bb	0.013050492
13	0x3dda78e3	0.106675886
14	0xbda37058	-0.07980412
15	0x3dce1361	0.1006229
16	0xbdadd110	-0.08487141
17	0xbd909f07	-0.07061582
18	0x3db0c634	0.08631554
19	0x3dbe461f	0.09290718
20	0xbd8e308c	-0.06942853
21	0xbc7c2681	-0.015390039
22	0xbdbf87c9	-0.09352071
23	0xbdf57cef	-0.1198672
24	0xbd809618	-0.06278628
25	0x3d5e68b2	0.054299064
26	0xbbc3a03e	-0.00597003
27	0xbc8987e2	-0.016788427
28	0xbda0333c	-0.07822272
29	0xbb7a4134	-0.0038185837
30	0xbc49149e	-0.012272982
31	0xbce5a4c1	-0.028032662
32	0x3d92f426	0.07175474
33	0xbd87b3f6	-0.06626122
34	0xbde31520	-0.11088014
35	0xbda43b0b	-0.08019074
36	0x3d747455	0.059681255
37	0x38a48894	7.845569e-05
38	0x3c583df0	0.013198361
39	0x3db17836	0.086655065
40	0x3d8cd25e	0.06876062
41	0x3c718a8f	0.014742508
42	0x3d806316	0.06268899
43	0xbd32eb8c	-0.043681666
44	0xbbcca471	-0.006245189
45	0x3d9a8b73	0.07546129
46	0xbdcf7e7c	-0.10131547
47	0xbcad2358	-0.021135017
48	0xbdb6b9fd	-0.08922193
49	0xbdf15bfc	-0.11785123
50	0xbd3e3a3a	-0.046442248
51	0x3a8fe5d2	0.0010978526
52	0x3d8d8dd5	0.06911818
53	0xbce0f692	-0.027461324
54	0x3da35f9e	0.07977222
55	0xbdb2c61a	-0.08729191
56	0x3d84c835	0.06483499
57	0x3d74abe3	0.059734236
58	0x3db70157	0.089358024
59	0x3cebb479	0.02877258
60	0xbdef8b3b	-0.11696478
61	0x3dba6cee	0.09102808
62	0xbd5444d5	-0.051823456
63	0x3ba87318	0.0051406734
64	0xbcb1cf2f	-0.021705238
65	0x3d35cd17	0.044385042
66	0x3db7670a	0.089552
67	0x3d1a0d92	0.037610598
68	0xbdc5e1fa	-0.09662242
69	0x3d0dbbfa	0.034603097
70	0xbd854942	-0.065081134
71	0x3c39c190	0.011337653
72	0xbc17b38d	-0.009259117
73	0x3d974beb	0.07387527
74	0x3d0eb19f	0.03483736
75	0x3dbd30e4	0.09237841
76	0xbda3e862	-0.08003308
77	0x3d17dcf7	0.037075963
78	0xbde77b20	-0.11302781
79	0xbd95c11f	-0.073122256
80	0x3dc1a8c3	0.09456017
81	0x3dd2c20b	0.10290917
82	0x3de0e12a	0.10980447
83	0xbdf1373e	-0.11778115
84	0xbdbb4f8f	-0.09146034
85	0x3d231f51	0.039824788
86	0x3da9dcbf	0.08294057
87	0xbd4dbe0e	-0.05023008
88	0x3d8ec616	0.06971376
89	0x3db89ab5	0.09013883
90	0xbd78f2ca	-0.060778417
91	0xba832471	-0.0010005367
92	0xbd905b8d	-0.07048712
93	0xbdf66661	-0.12031246
94	0x3d7df982	0.062005527
95	0x3cdfebdc	0.027334146
96	0xbddb49a5	-0.10707406
97	0xbda6ce72	-0.08144845
98	0xbd2de21a	-0.042451955
99	0x3d06dcac	0.032925293
100	0x3da3f659	0.080059715
101	0x3ce18e3c	0.027533643
102	0xbdea3fb3	-0.11437931
103	0xbdf67b1a	-0.120351985
104	0xbde63806	-0.112411544
105	0x3b8f4b7c	0.004373012
106	0xbc09a022	-0.008399995
107	0xbde04f6d	-0.10952649
108	0xbdc44834	-0.09584084
109	0xbdca8f4b	-0.09890612
110	0xbd132cde	-0.03593146
111	0x3c252547	0.010079688
112	0xbdbf22bf	-0.09332799
113	0xbd348a6a	-0.044077314
114	0x3d7329e6	0.05936613
115	0xbd873b82	-0.06603147
116	0x3d293390	0.04130894
117	0x3d96f184	0.07370284
118	0xbd1a5477	-0.03767821
119	0xbc04b225	-0.008099114
120	0xbd831415	-0.06400315
121	0xbdb2cd50	-0.087305665
122	0x3b495bfa	0.0030724988
123	0xbb9aa39f	-0.004719212
124	0x3d4b3709	0.049613032
125	0x3d902bcc	0.070396036
126	0x3d7656ef	0.0601415
127	0x3de0cea3	0.10976913
128	0x3dd5992b	0.10429605
129	0x3c12da67	0.008963204
130	0xbdf3ee81	-0.119107254
131	0x3d11f19c	0.035630807
132	0x3dc94cbf	0.09829091
133	0x3d8935bb	0.066997014
134	0x3d09433f	0.033511396
135	0xbde6d413	-0.11270919
136	0xbdf4c18d	-0.119509794
137	0xbd158227	-0.036501076
138	0x3d9a48fe	0.075334534
139	0xbcfa49da	-0.030552793
140	0xbde26912	-0.11055197
141	0xbdf0621b	-0.11737462
142	0xbdd17794	-0.10227886
143	0xbdb8a2e1	-0.09015442
144	0x3d3c4f99	0.045974348
145	0xbd2a8aed	-0.041636396
146	0x3d63ebb0	0.05564469
147	0xbc2ab5a4	-0.010419283
148	0xbdbf8421	-0.093513735
149	0x3dad4b53	0.084616326
150	0x3d1bce5c	0.038038597
151	0x3d6b9c97	0.057522383
152	0xbc34d7a3	-0.01103774
153	0xbd3a7165	-0.045518298
154	0xbc9eab28	-0.019368723
155	0xbd54df0c	-0.051970527
156	0x3de14242	0.10998966
157	0x3d4a9e80	0.049467564
158	0x3d036c7d	0.032085884
159	0x3dd0a93a	0.101885274
160	0xbd74bbc0	-0.059749365
161	0xbd6c8e33	-0.0577528
162	0xbdb0e436	-0.08637278
163	0xbe00d585	-0.12581451
164	0xbd8e1538	-0.06937641
165	0xbdca9eb1	-0.09893549
166	0x3d9c5405	0.07633213
167	0xbd8a9f57	-0.06768673
168	0xbddd496f	-0.10805022
169	0x3db2d04c	0.08731136
170	0x3dd35041	0.103180416
171	0xbd7c3f7d	-0.061583985
172	0xbd80bb34	-0.06285706
173	0x3d077864	0.033073798
174	0x3d23d852	0.04000122
175	0x39ad3b40	0.00033041276
176	0x3d1ab38a	0.037768878
177	0x3dce4260	0.10071254
178	0x3b30d0d5	0.0026979942
179	0xbdcbb335	-0.099462904
180	0xbd557c68	-0.052120596
181	0x3dd6bdec	0.104854435
182	0xbdd152e6	-0.1022089
183	0xbda136c1	-0.078717716
184	0xbb67d52c	-0.0035374863
185	0x3d3f3e0e	0.04669004
186	0x3dbd9dfe	0.0925865
187	0x3d0c5aa1	0.034266118
188	0xbdbd0638	-0.09229702
189	0xbd6ef3d4	-0.058338
190	0x3c87932e	0.016549673
191	0xbd018da0	-0.031629205
192	0x3b935819	0.004496586
193	0xbda03834	-0.0782322
194	0x3d3b4ce3	0.04572762
195	0xbdbc0aed	-0.091817714
196	0xbdc10c5f	-0.09426188
197	0x3c98ca5e	0.018651184
198	0x3da7efe1	0.0820005
199	0xbdc61a27	-0.09672957
200	0x3da0e294	0.07855716
201	0x3d463a94	0.04839571
202	0x3d92f30c	0.07175264
203	0x3d333d97	0.04375991
204	0x3ce9ad04	0.028524883
205	0x3c80df38	0.015731439
206	0x3cb98841	0.022647979
207	0xbdbda96b	-0.092608295
208	0xbdb65dae	-0.08904587
209	0xbda2dd6b	-0.079523884
210	0x3cc624e8	0.02418752
211	0x3da7a6ae	0.081860885
212	0x3e012471	0.12611558
213	0x3d30ec0a	0.043193854
214	0xbddb75bc	-0.107158154
215	0x3dec4cb7	0.1153807
216	0x3dbb983c	0.09159896
217	0x3bb9c006	0.005668643
218	0x3da15253	0.0787703
219	0x3d82d0aa	0.06387456
220	0xbcb9548f	-0.022623328
221	0x3d211bc5	0.039333124
222	0xbbe313c4	-0.0069298465
223	0x3dfca324	0.12335804
224	0xbdaf2061	-0.08551098
225	0xbde10d40	-0.10988855
226	0x3d8aec1a	0.06783314
227	0x3d8db50b	0.06919297
228	0x3d9a2d91	0.07528222
229	0xbe0bdf23	-0.13659339
230	0xbdd75f7d	-0.1051626
231	0x3dd4c13a	0.103884175
232	0x3b6c16d0	0.003602434
233	0x3d51f184	0.051255718
234	0xbdc6b793	-0.09702983
235	0x3cced12e	0.025246229
236	0xbd0dc2c6	-0.03460958
237	0xbd91fb98	-0.07128066
238	0xbce72247	-0.028214587
239	0x3d40c77b	0.04706524
240	0x3dcce3c9	0.10004384
241	0xbc4f3048	-0.0126457885
242	0x3d72fa80	0.059320927
243	0xbd834e7f	-0.06411456
244	0xbcb542bd	-0.02212655
245	0xbd0d50be	-0.03450083
246	0x3db34221	0.087528475
247	0x3d3bba99	0.04583225
248	0xbd88ed2f	-0.06685864
249	0x3cf90010	0.030395538
250	0xbd019156	-0.031632744
251	0xbe07ae54	-0.13250095
252	0x3da93942	0.08262874
253	0xbdf541cc	-0.119754404
254	0x3d844355	0.06458155
255	0x3da78f11	0.081815846

season_tower.lstm_embedding.bias_ih_l0 f4 [256]
0	0xbd7538a7	-0.05986848
1	0xbd9eb9c2	-0.07750274
2	0xbd0066bd	-0.03134798
3	0x3dfce2e7	0.12347966
4	0xbd16b5fd	-0.03679465
5	0x3c4b7f34	0.012420464
6	0x3c9ba884	0.019001253
7	0x3dd18b9c	0.102317065
8	0x3d816903	0.063188575
9	0xbda736ee	-0.08164774
10	0x3dd2d51a	0.10294552
11	0x3d629014	0.055313185
12	0xbca135ff	-0.019679068
13	0xbdb16b42	-0.08663036
14	0xbcdbcdeb	-0.026831588
15	0x3d8f7ad3	0.07005849
16	0xbcfe700e	-0.031059291
17	0xbdb22c80	-0.08699894
18	0xbd30b469	-0.043140803
19	0x3d748ed9	0.059706543
20	0xbd89068f	-0.06690704
21	0x3d556890	0.05210167
22	0xbb1fdbab	-0.0024392407
23	0x3d251e65	0.04031219
24	0x3b991935	0.0046721944
25	0xbd53fe0d	-0.051755954
26	0xbd6c1f1a	-0.05764685
27	0x3d7e1417	0.062030878
28	0x3d2f969d	0.042868245
29	0x3cfa3c2f	0.030546276
30	0x3d920553	0.07129922
31	0x3d61b7b2	0.055106826
32	0xbda8e8db	-0.08247539
33	0xbe06948f	-0.13142608
34	0xbd345cdf	-0.04403388
35	0x3db77449	0.089577265
36	0xbc52f29a	-0.0128752235
37	0xbd4c140a	-0.0498238
38	0xbdb08e8b	-0.08620938
39	0xbd19085e	-0.037361495
40	0xbda9357a	-0.08262153
41	0xbd914a29	-0.07094223
42	0xbdbec134	-0.09314194
43	0x3d3f0a6a	0.04664079
44	0x3dc1ac3d	0.0945668
45	0xbd7e1068	-0.062027365
46	0x3d869707	0.06571775
47	0xbdb6aa8b	-0.08919247
48	0xbbe7c798	-0.007073354
49	0x3dc4395b	0.09581252
50	0x3d8d2f46	0.06893782
51	0xbd5e520f	-0.054277476
52	0x3d9d10d9	0.07669229
53	0xbb92b5c2	-0.0044772336
54	0x3d4de04a	0.050262727
55	0xbd71e0bf	-0.059052225
56	0xbd6d74da	-0.057972766
57	0xbdee1841	-0.1162572
58	0x3d4876a4	0.04894127
59	0x3ceb9c45	0.028761039
60	0x3d7d71d1	0.061876122
61	0xbddd5a9f	-0.108083
62	0xbdbd8a64	-0.092549115
63	0x3d79864c	0.06091909
64	0xbde93178	-0.113863885
65	0x3dc11593	0.09427943
66	0xbc742161	-0.014900536
67	0x3c7cf9ed	0.015440446
68	0x3d8809ae	0.06642471
69	0x3cac66a1	0.021045031
70	0xbd35f42e	-0.04442232
71	0xbe00a756	-0.12563834
72	0x3b8e84e2	0.004349337
73	0x3dc6658d	0.09687338
74	0xbd274e79	-0.04084632
75	0xbe05425b	-0.13013594
76	0xbd992fa5	-0.074797906
77	0xbd0510be	-0.03248667
78	0xbd77d068	-0.060501486
79	0x3db63493	0.088967465
80	0xbcd94d0d	-0.026525998
81	0xbde69423	-0.112587236
82	0xbd28ff7b	-0.04125927
83	0xbdcaa41a	-0.09894581
84	0x3dd8fc05	0.10594944
85	0xbdc301c4	-0.09521821
86	0x3df34b05	0.11879543
87	0x3dc661c8	0.09686619
88	0x3d174bbe	0.036937468
89	0x3dbba58d	0.09162436
90	0x3d838066	0.064209744
91	0x3dc5b607	0.096538596
92	0xbdf53e9f	-0.11974835
93	0x3de62ac3	0.11238625
94	0xbd656a56	-0.056009613
95	0xbce7330b	-0.028222581
96	0x3d6591cb	0.056047242
97	0xbde46297	-0.11151617
98	0xbda724b3	-0.08161297
99	0xbda3430b	-0.07971772
100	0xbdd32047	-0.10308891
101	0xbd2394ce	-0.039936833
102	0xbd461633	-0.048361015
103	0xbdc88374	-0.09790698
104	0xbd619103	-0.055069935
105	0x3cd55ece	0.026046183
106	0x3d166b07	0.036723163
107	0x3d98055c	0.07422897
108	0xbd7cde7c	-0.061735615
109	0x3d0c8ac0	0.03431201
110	0x3dc5155c	0.096232146
111	0x39a109ce	0.00030715618
112	0xbdcd69dc	-0.10029957
113	0xbd3b0022	-0.045654424
114	0x3d1b51a8	0.03791967
115	0x3dd0c168	0.10193139
116	0x3d006c93	0.031353544
117	0x3d83526f	0.06412207
118	0xbdb88ed1	-0.09011615
119	0x3daa8965	0.08326987
120	0x3d8611a2	0.06546332
121	0x3cea4825	0.028598854
122	0xbd1aa7ea	-0.03775779
123	0x3b855df4	0.004070038
124	0xbdcb1027	-0.0991519
125	0x3d0ba4e3	0.034092795
126	0xbd3ce2d3	-0.046114754
127	0xbcdb664f	-0.026782183
128	0x3d02ca57	0.031931248
129	0x3debeb70	0.115195155
130	0x3de4aa9f	0.11165356
131	0x3de68568	0.11255914
132	0xbde341cf	-0.11096536
133	0xbadc4c96	-0.0016807492
134	0x3d3a9fab	0.045562427
135	0xbcdafc86	-0.02673174
136	0x3c1f220e	0.009712709
137	0xbd925e90	-0.071469426
138	0x3d76407d	0.060120095
139	0x3d0c5f2d	0.034270454
140	0xbd5878e8	-0.05284968
141	0x3def026d	0.116703846
142	0x3d946fa9	0.0724786
143	0xbde7ee6e	-0.11324774
144	0xbdcf0cf7	-0.10109895
145	0x3dc7d06c	0.0975655
146	0xbd9265ca	-0.07148321
147	0x3b376a8e	0.0027987096
148	0xbce72f60	-0.028220832
149	0xbdbacc7b	-0.09121033
150	0x3dbd95d8	0.09257096
151	0x3dc01578	0.09379095
152	0xbde512e1	-0.111852415
153	0xbcd60f25	-0.026130268
154	0xbdc8a5b1	-0.09797228
155	0xbdd01d6a	-0.1016186
156	0x3d6c0240	0.057619333
157	0xbccbd100	-0.024879932
158	0x3dac6657	0.08417957
159	0x3df39fef	0.11895739
160	0x3dcefac3	0.10106423
161	0xbd35a466	-0.044346236
162	0x3e00a4a3	0.12562804
163	0xbc405b24	-0.01174048
164	0xbc69740e	-0.014248861
165	0x3c1b0fdd	0.009464231
166	0xbd23ee48	-0.040022165
167	0x3cc4debf	0.024031995
168	0x3d5d720b	0.054063838
169	0xbe021bca	-0.12705913
170	0xbd4687e3	-0.048469435
171	0x3da1d958	0.07902783
172	0x3c85b909	0.016323583
173	0x3dd80762	0.10548283
174	0xbd323035	-0.043503005
175	0xbd73790e	-0.05944162
176	0x3d97d1b0	0.074130416
177	0x3c74eb07	0.014948613
178	0xbd22904c	-0.039688393
179	0x3cd77e71	0.02630541
180	0x3d9aeb5d	0.07564423
181	0xbd7704f8	-0.060307473
182	0x3b5b77f7	0.0033488253
183	0xbdb76b48	-0.08956009
184	0x3d939ef8	0.07208055
185	0x3dd6a942	0.10481502
186	0xbcd2bc8c	-0.025724672
187	0x3d76b464	0.060230628
188	0xbb504744	-0.003178076
189	0xbd8be11e	-0.06830047
190	0x3cbfff23	0.023437088
191	0xbcad7838	-0.021175489
192	0x3d081b98	0.03322944
193	0xbdfd1419	-0.12357349
194	0xbcd7a72f	-0.026324837
195	0xbd8ac98e	-0.06776725
196	0xbd26c5d8	-0.040716022
197	0x3b6d013e	0.003616407
198	0xbdefeb99	-0.117148586
199	0xbdf4734a	-0.11936052
200	0x3c7bb658	0.015363298
201	0x3ad749d8	0.0016425205
202	0xbd00060e	-0.031255774
203	0x3d88fc07	0.066886954
204	0x3d7775e8	0.06041518
205	0x3cf46c9a	0.029836942
206	0xbca572cc	-0.020196341
207	0x3a9c846f	0.0011941324
208	0xbd8f5d4e	-0.07000218
209	0x3dc30ebd	0.095242955
210	0x3de5cf46	0.11221175
211	0x3d11bc89	0.03558019
212	0xbc19de63	-0.0093914
213	0xbdb59dc2	-0.088679805
214	0xbdc3334b	-0.09531268
215	0x3de79b7b	0.113089524
216	0xbd331da1	-0.04372943
217	0xbd8443c4	-0.06458238
218	0x3ce676e2	0.02813286
219	0x3dd1b356	0.10239284
220	0x3d06164b	0.032736104
221	0x3c88ee03	0.016715055
222	0xbd6c699e	-0.057717912
223	0x3df5a572	0.11994447
224	0x3c8af68b	0.016963264
225	0x3dd7510d	0.10513506
226	0xbde85531	-0.11344374
227	0xbd6c63ad	-0.057712246
228	0x3d83b308	0.06430632
229	0x3d6e2444	0.058140054
230	0xbdff072a	-0.12452538
231	0xbdf4a2ff	-0.119451515
232	0xbdb51a54	-0.08842912
233	0xbd5ec188	-0.054383785
234	0xbd1b26ac	-0.037878677
235	0x3c6cb257	0.014446816
236	0xbcdfffda	-0.02734368
237	0xbdf96c24	-0.12178829
238	0x3ccf8169	0.025330262
239	0xbdd29cfe	-0.1028385
240	0x3cc830e9	0.024437385
241	0xbccede15	-0.025252381
242	0xbda85de4	-0.08221033
243	0x3ddde54a	0.10834749
244	0x3c8c940c	0.017160438
245	0x3dcc817b	0.09985634
246	0xbd658295	-0.056032736
247	0x3cbf2e6a	0.023337562
248	0x3d4be098	0.049774736
249	0xbdaa483d	-0.083145596
250	0xbcba7dac	-0.022765003
251	0x3ce39498	0.027780816
252	0xbd97b5b2	-0.074077025
253	0xbbe3816e	-0.0069429195
254	0x3dd4ca6d	0.10390172
255	0x3ade343a	0.0016952821
