MAHOP(MAHOP-st)/temp_check.pth (torch, 969387 bytes, 49 tensors)

near_tower.lstm_embedding.weight_ih_l0 f4 [256, 4]
00000000: f20a 1ebd 7719 cabd f5ed bb3d cf6b 79bd
00000010: a0cc b0bd 6fe9 a1bd 585e 71bd ae55 ba3d
00000020: 12c8 f0bd 5edf ce3d 9038 22be bd61 393d
00000030: 89da 293e 75a4 5f3e cbc8 693e 2ff6 723e
00000040: 2042 953d 0722 c13d ecdf 12be af74 7d3d
00000050: c3cb 093e 144f 96bb b6f6 123d be21 ae3d
00000060: 8c4f 0e3e bc66 d8bc ff20 fd3d fa26 e43d
00000070: cb46 1f3e 039e 7d3d 16db 38bc 9cb3 193e
00000080: 147c a93c 6079 cd3c 3bed 90bd c9a7 f3bc
00000090: f86b 4c3d 1ad4 c13b fa04 a73d efd1 da3d
000000a0: f646 22be f48c a43d dee4 7f3c ad69 f0bd
000000b0: 515c 5cbc 7378 03be f2b3 02bd f5f4 29be
000000c0: 0545 d13d eda0 bebd 8af3 67bd eb6f f03c
000000d0: 3897 acbd 3257 da3c b764 43be 70e5 cc3d
000000e0: 2a77 05be a5c1 3fbc 49c8 843b 004d 803d
000000f0: 59b0 8a3d b544 bd3d 43ba 293d 0ea6 653c
00000100: 8b36 3e3d 3339 97bd cb26 463d 66f8 fd3c
00000110: 0a9e ee3d ef1f 333e 0352 9bbd 2121 c1bc
00000120: 4bd8 2b3e 4fd1 543e d57a 90bd 1ec6 8ebd
00000130: 053d ddbd 7e09 99bd d699 26be 9252 b53d
00000140: 7abd b43d 5358 6bbd e603 1f3d 907c b53c
00000150: 3543 853e 3b3a 283e 8175 363e d3e4 fc3d
00000160: bf2b fbbd de17 f33b b9ee 9f3c ad3b ffbd
00000170: 058a a2bd 0073 18bc 92d2 b9bd 2b9b fdbd
00000180: 96a0 383d d688 1a3d 16ae acbc 6bf0 0d3e
00000190: 80cd 58bc 92d7 5b3e 52a4 9e3d 4573 263e
000001a0: b974 f9bc 3f5b 083e 8455 babd be42 773d
000001b0: 46bb d43a e89c 8dbc 80c5 253e 1ef7 bebc
000001c0: 56d7 013d 61f2 083e 4d8d 823c e5c6 263e
000001d0: 849b b03d 001a 17bb fc42 6ebb 9cd5 9a3d
000001e0: ad6a 203d e4a4 5e3d ab38 e8bd 938f 193d
000001f0: 54a2 ab3c 256c fc3d b462 6dbd 27d6 a23d
00000200: b459 a53d 811c e43d 221f 163c 6308 0a3e
00000210: 8f33 433e 0a5f 113e beb7 143b 5be6 c23c
00000220: 64da 83bd f27e f5bd 9b0d d33d 04a6 193e
00000230: e2bc 023d 4b6f 123e 486c b7bc a69c 2d3e
00000240: 263f da3b dd45 e13d d94b d93d c69d c5bd
00000250: abe2 173e c3fb 763d 3374 863d 4bcb c9bb
00000260: b78d 033d 97d4 d53a 51e8 3c3a 2029 b33d
00000270: 669a 0b3d d0fd bebc 612c a23c 96b6 13be
00000280: 5db1 8c3d 40c2 4ebd 89d1 103e a9f4 143e
00000290: 1db2 86bb d3a1 943d fc84 6bbd f7da 133e
000002a0: 6440 943d c8df 2c3e ca87 f13c 6535 c43d
000002b0: ec6e d7bd a3b4 2239 f9f2 aebc 2090 1c3e
000002c0: 00b5 393e 4cd1 cd3d f19d be3d dc4f 1b3e
000002d0: 6111 abbd 33fd 603e c2c0 b4bd 5600 133d
000002e0: 5c6a 1cbd e371 a4bc e8cd 0bbe bd6f 30be
000002f0: 2adb 8d3c d2da f33d adbe 87bc d42f 123e
00000300: 28aa ab3d 2804 433d 4376 49bc 7ceb aebd
00000310: b2ab 0abe 4c01 d03c 2195 a1bd 178f 2a3d
00000320: a74f fcbc 9579 343c 1296 49bd e97e 7c3c
00000330: 131e c83d 89d7 c0bd 8edd 403d 9659 1ebe
00000340: 548d 8dbc aabe 403c 1b8b 4b3d c047 923b
00000350: 70ed 9a3d 188d 02bd 8293 943d 15e5 b2bb
00000360: f9d0 6ebe 0839 18bb 348c 30be 8299 21be
00000370: 71c1 8bbd 8062 81bd 3672 5dbc 41d4 723d
00000380: 31a0 fa3d 1670 0bbe 5d9e c13d 2d1a c8bc
00000390: 6c1f 453e c462 403d 9b37 ec3c 28b1 0b3e
000003a0: 5ce7 8b3d 5288 a63d 3942 503e 4255 723e
000003b0: a265 b0bc c600 0a3e e7d9 77bc 0033 7ebd
000003c0: db22 893b 6a61 073e 4a16 1f3e d7cf 6d3e
000003d0: c66c ac3d d30b bbbd 7875 913d 86fd a13d
000003e0: 42d1 e43c 1a89 f83d 12e2 4e3c b39d b43d
000003f0: 5667 4b3e dc5c 9a3d 047a acbc fda3 6c3d
-0.038584657 -0.09868138 0.09176246 -0.06089383 -0.08632779 -0.07905852 -0.058927864 0.09098373
-0.117569104 0.10101198 -0.1584189 0.045259226 0.16587271 0.21840079 0.22830503 0.23726724
0.07288003 0.09430318 -0.14343232 0.061878856 0.13456635 -0.0045870636 0.035879813 0.085025296
0.13897532 -0.026416175 0.12359809 0.11140247 0.15554349 0.06191827 -0.011282703 0.15009922
0.020689048 0.02508229 -0.07076498 -0.029743092 0.049907655 0.005915177 0.08155246 0.10684573
-0.15847382 0.08034697 0.015618531 -0.11738906 -0.013449744 -0.12838916 -0.03190989 -0.1659735
0.102182426 -0.09308038 -0.05662874 0.029350242 -0.0842728 0.026652906 -0.19081388 0.10004699
-0.13033739 -0.011703883 0.004052196 0.062646866 0.06771917 0.092416205 0.0414374 0.014016641
0.046438735 -0.07383957 0.04837684 0.031002235 0.11651237 0.1749265 -0.07584002 -0.023575367
0.16781728 0.2078297 -0.07054678 -0.069713816 -0.10802654 -0.074725136 -0.16269621 0.0885364
0.08825202 -0.05745728 0.038822077 0.022154123 0.26027837 0.16428463 0.17818262 0.12348332
-0.12264203 0.0074186167 0.019523012 -0.12462554 -0.079364814 -0.009304762 -0.09073366 -0.123831116
0.04507502 0.037728153 -0.021079104 0.13861243 -0.013232589 0.21468952 0.07746185 0.1625491
-0.030451166 0.13316058 -0.09098342 0.060366385 0.0016230128 -0.017286733 0.16188622 -0.023311194
0.0316995 0.1337371 0.015936518 0.1628681 0.08623412 -0.0023056269 -0.0036355844 0.07560274
0.039164234 0.05435647 -0.113389336 0.03749044 0.020951428 0.123253144 -0.05795546 0.079510026
0.0807375 0.11138249 0.009162696 0.13479762 0.19062637 0.14196411 0.0022692527 0.023791483
-0.06438139 -0.119871035 0.103053294 0.15004736 0.031918414 0.14300267 -0.0223905 0.16954288
0.00666036 0.109996535 0.1061017 -0.096492335 0.1483256 0.060298692 0.06565132 -0.0061582676
0.03211757 0.0016313967 0.00072062487 0.08748078 0.034082793 -0.023314387 0.019796552 -0.1442512
0.06869767 -0.05047822 0.14142431 0.14546455 -0.004110588 0.07257428 -0.05749987 0.14438997
0.07238844 0.16882241 0.029483695 0.09580497 -0.105192035 0.00015516816 -0.021356093 0.15289354
0.18135452 0.10049686 0.09307469 0.15167183 -0.08352924 0.21971588 -0.08825828 0.035888992
-0.03818737 -0.020073837 -0.13652766 -0.17230125 0.01731642 0.11906971 -0.016570413 0.14276057
0.08382064 0.047611386 -0.012296262 -0.08541009 -0.13542059 0.025391243 -0.07889772 0.041640367
-0.0307997 0.011015316 -0.049215384 0.015411117 0.09771361 -0.0941611 0.04708629 -0.15463862
-0.017279305 0.011764208 0.04969321 0.0044641197 0.07564819 -0.03187284 0.072546974 -0.0054594376
-0.23321904 -0.0023227353 -0.17240983 -0.15781215 -0.068240054 -0.063176155 -0.013516 0.059284452
0.12237585 -0.13616976 0.094540335 -0.024426544 0.19250268 0.04696919 0.028835109 0.13641798
0.06831238 0.0813147 0.20337762 0.23665336 -0.021532837 0.13476858 -0.015127636 -0.062060356
0.0041850633 0.13220754 0.15535846 0.23223816 0.084191844 -0.09133115 0.071024835 0.07909684
0.027931813 0.12135525 0.012627142 0.08819141 0.19863638 0.07537243 -0.021054275 0.05777358

near_tower.lstm_embedding.weight_hh_l0 f4 [256, 64]
00000000: 4016 05be 9515 c5bc f5dc 1d3e babb d9bd
00000010: 7d71 ef3c d4b6 d53d cf20 e1bd 5bd7 8a3d
00000020: e2db a2bd 2554 a1bd 9bd1 c73d b6ea 263e
00000030: 524f e23c 964b 293d 03d6 adbc 3013 633e
00000040: af9d ee3c e16c 413d 8564 253e 82d0 c83d
00000050: ecf1 e33c d568 e3bd ba4a 07bd 2a97 cf3d
00000060: 7748 9e3d 48e4 e83c a78b b9bd a7b1 dd3d
00000070: 3508 9d3c bb0b 723d e340 293e 9ca4 f73d
00000080: f8f0 223d db74 bd3d 4669 dcbd 2a13 9cbd
00000090: b17d 9b3d 4efb a33d b89a 4b3d a5a1 e3bd
000000a0: b6ad af3d 3710 8c3d 328c 623d adcf 5cbd
000000b0: 94f5 0bbe 0ff0 163d 28e0 743d 0dcb 92bc
000000c0: ea71 d73d a5a4 003e 1166 993d 78f7 cf3d
000000d0: 1a43 b73d d283 3e3d e266 cebc c7c6 e1bd
000000e0: 110d 62bd db62 79bc 25f7 98bd 9ee5 9f3d
000000f0: 0973 063e 9dec a2bd 2a51 093e 655a c73d
00000100: 4965 a53d eb91 133e 2cc3 853d 13cc 38bc
00000110: 06c3 903c ec1b babd 38c3 393d a6df b43d
00000120: ddc4 19bc 5184 ef3c a305 01bd 0424 703c
00000130: 8fbb eb3d aa1a b13d 2158 b5bc 601e 063d
00000140: adbc 903c 0134 813d 275f 923d 1313 08bd
00000150: 82a3 90bd 3e04 fcbd b99f 2cbd 9d9e a2bd
00000160: 3a6c 48bd e9da c7bd 68aa 483d 39a1 a0bd
00000170: 72b7 9bbc d413 9fbd 6326 82bd ed3f 4a3c
00000180: aed3 99bd c52f 88bd 0355 3f3d f173 75bd
00000190: c7d0 7a3d e61e 95bd 5bf1 d4bd 45e2 69bd
000001a0: 9c6b f03d 746b 6c3d f2d3 e03d deed 97bc
000001b0: ab15 b8bd 0f79 563d f9cc bebd 74c5 e23d
000001c0: d628 053e 800c 413d 0dbf cfbd 1885 463e
000001d0: 9bb2 823c 9b77 1a3c c033 c33c d2c6 94bd
000001e0: 61f2 b53c 5d5d 72bd 20c7 d9bd fd9c 1abd
000001f0: ce58 9bbd 232e 903d 59a9 fa3d b53f 903d
00000200: 6fa7 92bc c8c3 d93d b4c1 5bbd 7620 86bc
00000210: ccb5 193e 5408 5d3d ac8e eb3c c89a bdbd
00000220: 5b87 29bc d53d 563c e179 053e 3be9 0b3d
00000230: a06a 403d 0924 adbd f397 95bd ac34 843d
00000240: 3cb9 643d cc88 7abd 238b e53d bd72 e83d
00000250: 6e51 303d 7793 963e 1e62 083e 4dbe bfbd
00000260: 1a09 6c3d 85d3 66bd 86be 153d ab58 863d
00000270: 10cb 633e 1d4a ab3c f678 223c d498 a5bc
00000280: 5668 27bd 9011 003e 3ae3 a43c 612d 8a3d
00000290: 41c0 453e 55fc 00bd 82e0 de3d 2754 ac3d
000002a0: a3ba 483c eff2 0a3d 2b38 903e 4140 6cbe
000002b0: 98a1 0dbd dc01 6cbd 2e89 a53d 3f63 483e
000002c0: 6da1 a83d 1a0d af3d 259d 263e 55ca 8bbd
000002d0: aeef 703d a989 123e fb2f e23c bfda 023c
000002e0: 1c77 0ebc 6b7c 293e 27bf fd3d 6700 f9bc
000002f0: 6ac0 283e 25cb a0bc 908c 063d 483a 45bd
00000300: f155 e1bd 91ff 3c3c e5ac adbd 17d8 d73d
00000310: 9f0e 3e3d 4636 d6bc 65ae f0bd 0ba0 90bd
00000320: 1134 5d3d 0d20 cd3d 811c 05be 8741 4dbd
00000330: dced 933d a92f 573d 7d57 ed3d d17b 46bc
00000340: b57d 0b3d bd5b d73d e619 773d 35f5 ce3d
00000350: 35be b5bd eb30 4ebe 0b6e fcbc 516b b1bd
00000360: 47ad b7bc c11c ffbc 9414 4b3d 00c1 743d
00000370: a2ad 523d f5f6 23be 76a6 edbc f4ad 27ba
00000380: 14d6 a9bd 828b 233d 6767 6cbd dbcf c7bd
00000390: bef5 57bd ddfe 52bc 0763 95bd 5d5e a93c
000003a0: f91d 90bc bf80 043e 6df4 c7bd d4c0 923d
000003b0: ad8d 32be 7d56 d83c f5c5 aabd 8a40 cdbd
000003c0: 30a1 63bd ebe4 a4bd 89d7 c53d 82f7 5f3c
000003d0: c439 553d 89cd 5b3e 9f18 873c 0e7d cabc
000003e0: 11e9 143d 88c0 5cbd 1bd9 65be d933 a1bd
000003f0: 6a79 92bc 56d7 a9bc 86de fabd 1175 64bb
-0.12996769 -0.024058143 0.1541632 -0.10631509 0.02922892 0.10435262 -0.10992586 0.06779357
-0.079520956 -0.078773774 0.09756776 0.16300473 0.027625713 0.04133185 -0.021220213 0.22175288
0.029127924 0.047222976 0.16151626 0.09805395 0.027825318 -0.111039795 -0.03303025 0.10136254
0.07728665 0.028429165 -0.0905984 0.108249 0.019168952 0.05909322 0.16528659 0.120919436
0.039780587 0.09250804 -0.10762267 -0.07620843 0.07592333 0.08006917 0.0497081 -0.111148156
0.085780546 0.0683903 0.055309482 -0.053908993 -0.136679 0.03685003 0.059784085 -0.017919088
0.10519774 0.12562807 0.07490171 0.10154623 0.089483455 0.046512432 -0.025195543 -0.11024242
-0.055188242 -0.015221323 -0.07469014 0.07807468 0.1312982 -0.07955287 0.13409868 0.09734038
0.08075959 0.14411132 0.06531367 -0.011279124 0.01767112 -0.09087357 0.04535219 0.0883172
-0.009385315 0.029237898 -0.031499516 0.014657024 0.11510383 0.08647664 -0.02213675 0.03274381
0.017668093 0.06308747 0.07147055 -0.033221316 -0.07062437 -0.12305497 -0.04214451 -0.07940409
-0.048931338 -0.09758551 0.048990637 -0.07843251 -0.019008372 -0.07767454 -0.06354978 0.012344343
-0.07511078 -0.06649736 0.046711933 -0.059925023 0.06123426 -0.07281284 -0.103975974 -0.057100553
0.11739275 0.057719663 0.10977925 -0.018546041 -0.08988508 0.052361544 -0.09316439 0.110728174
0.13003859 0.04713106 -0.10143862 0.19386709 0.015954306 0.00942793 0.023828387 -0.072644845
0.022210302 -0.05917107 -0.10633683 -0.037747372 -0.075852975 0.0704005 0.12239332 0.07043401
-0.017902104 0.106330454 -0.053651527 -0.0163729 0.15010756 0.05396302 0.028754555 -0.09258038
-0.010347213 0.013076265 0.13034774 0.034157973 0.046976686 -0.08454139 -0.07304373 0.06455359
0.055840716 -0.061165616 0.11208179 0.113500096 0.043046407 0.29409382 0.13318679 -0.09362469
0.057625867 -0.056354064 0.03655865 0.06559881 0.22245431 0.020909363 0.009916535 -0.020214476
-0.040870987 0.125067 0.020127881 0.067469366 0.1931162 -0.031490643 0.10882665 0.08414488
0.012251529 0.033923086 0.28167853 -0.23071386 -0.034577936 -0.05761896 0.080828056 0.1956911
0.082339145 0.08547421 0.16270883 -0.06825701 0.058822326 0.14310326 0.02761077 0.007986723
-0.00869539 0.16551368 0.12389975 -0.0303957 0.1647965 -0.019628117 0.032848895 -0.048151284
-0.1100272 0.011535541 -0.08480243 0.10539263 0.046400663 -0.026148926 -0.11752013 -0.07061776
0.054004733 0.10015879 -0.12999155 -0.05011132 0.072231025 0.052535687 0.11588953 -0.012114481
0.03405543 0.105155446 0.060327433 0.10105363 -0.0887417 -0.20135848 -0.030814191 -0.08663047
-0.022421492 -0.03114164 0.04958017 0.05975437 0.05143512 -0.16012175 -0.029010039 -0.00063964655
-0.08292785 0.039927967 -0.0577158 -0.09756442 -0.052724592 -0.012878147 -0.072942786 0.020674879
-0.017592417 0.12939738 -0.097634174 0.07165685 -0.17436858 0.026408428 -0.083385386 -0.100220755
-0.055573642 -0.08051475 0.09660251 0.01366985 0.052057043 0.21465124 0.016491232 -0.024717834
0.036355082 -0.05389455 -0.224461 -0.07871217 -0.01788016 -0.020732563 -0.12249474 -0.0034859816

near_tower.lstm_embedding.bias_ih_l0 f4 [256]
00000000: 2aab 80bd af98 11bd d367 1e3e 38f1 01bc
00000010: da5d 9ebd 9ae0 053e 6947 253d 00bf 9e3c
00000020: 86d7 263d 4b38 f03d 038b 0b3e 68eb 38bd
00000030: 1f58 c7bc 331e 063d 7929 d9bd ce0b 273e
00000040: ca20 c0bb 9335 e13d 9bc1 523c 2edb 48bc
00000050: 58ab 913d a565 1a3e 02d2 e4bd be16 21bd
00000060: 3520 e4bc 0539 d03d aa92 debd 6f21 873d
00000070: 383a eb3d 1c9d c13d 3843 333d dad4 f63d
00000080: 0699 193e 4007 9b3c f50e f33d b4d0 4ebb
00000090: 9108 1fbd 103d 2b3d 39fa 213c 102f c7bd
000000a0: 808c e13c b23b adbd e8ea 1b3e f3ae bb3d
000000b0: 8509 9fbd 2bf3 1c3d cd7c a43c 42b7 293e
000000c0: d74f 5c3c a87d ddbd 3d22 6dbd dad1 aebd
000000d0: 2727 f8bc 2a62 d33c d201 1abd b886 103e
000000e0: fd11 383c d881 0e3e a15e 123e d900 cf3d
000000f0: 162f 0d3e b2cc a2bd 08dd 663d 6309 f83b
00000100: 199a 403d fd2b 12be 3110 5abd a551 c0bd
00000110: 749f 483d de25 c13d 7aa7 d73d b146 bfbd
00000120: 637a 38bd c676 a5bd a183 053d 65b9 8c3c
00000130: 5880 213d 53d3 b13d 9be4 263c 4aeb ad3d
00000140: 4d43 8b3d edf5 f0bc 6b05 4bbc 6dcd 813d
00000150: 50a1 883d 863f a73d 985f dbbd cb39 8cbc
00000160: 2ac7 b33d 80f6 1e3d 4de9 c63d d732 01be
00000170: 05fe 9dbd 7e2a 4b3c 1d41 dd3c 1f3d 39bd
00000180: c069 0a3e a8e2 18bd 6d91 98bd cd98 a4bc
00000190: 4eda abbd 6312 27bc c2b8 f8bc cb67 0dbe
000001a0: b680 9b3d 844b 0c3d 9c06 953d 8e74 e43d
000001b0: 2b37 f13d 2c90 fd3a 7081 e1bd fa51 c0bc
000001c0: a841 9c3d c866 183d c63b d33d 34ac 37b8
000001d0: 428d 913d cd33 ab3d aa50 1cbe 0c19 8e3d
000001e0: 2975 993b 1320 493d 335e 5c3d 5abf f9bd
000001f0: 8033 91bd cf95 e13d 862c fe3d 0491 923d
00000200: e961 283d 7cef 8d3c 5360 c0ba 7e96 92bd
00000210: 6e6f c83d b65d c93b 1d70 1a3d c910 353c
00000220: 28ee fbba 97ac 753d bfcb 0cbe 7a41 f13c
00000230: b426 b8bc 437d 24b9 8df1 4f3d 23cf 813d
00000240: b580 31bd e60a 76bd b030 983d 0b4c b23d
00000250: 0bb6 58bd 0509 d93c 3f8b 933d 25b5 2d3d
00000260: 3ade c03d 3a3b ae3c 1331 d83c 445f a1bd
00000270: f7c4 4d3d df0f bdbd 8360 843d 429a 19bd
00000280: 3835 683d b76b 7dbc b02a a43c 91dd dc3d
00000290: f5af 1b3c 78fc a03d 4166 eebc 70b1 a1bc
000002a0: 363f e53d 60e9 ac3d 2100 38bc 0d76 243d
000002b0: 5b5d d5bd e292 e9bc af2e e0bc 64be f63d
000002c0: 2241 7abd b03a 8cbd 92d5 ae3d 5528 9bbc
000002d0: 5619 9bbd 8cc8 fb3d d194 f7bd 85b4 95bd
000002e0: 56b3 a7bd 97a6 0e3e 78c8 a03d 3764 2dbc
000002f0: 45a5 6d3d f895 bc3d ed96 76bd 4a15 043e
00000300: 4711 033e 0d4d dabd 6534 59bb 6fc5 963d
00000310: d62d 6b3c d9c6 0a3e 5f05 c3bd bfe6 bf3d
00000320: b9be 79bd 5eda 443e c106 333e 02a8 18be
00000330: 2675 71bd 184c 07be 788f 52bd 3990 f23d
00000340: 3a3c 54bd 72dc 443d f4bd 1c3e 3d64 efbc
00000350: d5c8 c93d 2682 9f3d d3a7 fcbd b310 413d
00000360: 4306 5abd a5c4 c83d 2315 8a3d dd32 b8bc
00000370: 5a79 b73d 6efc 043e 901f 6cbd b0bf c53c
00000380: 63d2 673c f863 153e 5bd3 023e 90be 143e
00000390: 5df8 a4bc 5631 5bbd ecbf 073e 2df6 f8bd
000003a0: e75c 3b3e 896e b83c 3a06 8b3e b1d9 af3d
000003b0: 63f3 e33d 1be7 0a3e 8cf7 27be b208 623e
000003c0: 33da 9bbd 3648 efbc 7e17 4abd 6db6 9bbd
000003d0: 2b9f c7bd d7bb 923d 4397 8dbc 2b79 38bd
000003e0: 343c e7bd 4c81 3b3e 0a73 4f3e 8016 ea3b
000003f0: a90b b83d 2671 11be c537 863c 47f7 953d
-0.06282647 -0.035546 0.15469293 -0.007931046 -0.077327445 0.1307396 0.040351305 0.019378185
0.040732883 0.11729487 0.13627248 -0.045146376 -0.024334012 0.032743644 -0.106036134 0.16313097
-0.0058632838 0.109965466 0.012863542 -0.012259288 0.07112759 0.15077837 -0.11172868 -0.03932833
-0.027847389 0.101671256 -0.10867818 0.06598174 0.11485714 0.09453794 0.043765277 0.12052317
0.1499978 0.018924356 0.11868087 -0.0031557502 -0.03882653 0.04180628 0.009886318 -0.09725773
0.027532816 -0.084586516 0.15226328 0.09164228 -0.077654876 0.03831784 0.02007904 0.16573814
0.01344677 -0.10814983 -0.05789398 -0.0853612 -0.030292107 0.025803644 -0.037599392 0.14113891
0.0112347575 0.13916719 0.1429391 0.101075836 0.13787493 -0.07949199 0.056363136 0.0075694784
0.04702196 -0.14274593 -0.053238098 -0.093905725 0.04898019 0.09431051 0.105299905 -0.09339655
-0.045038592 -0.08079295 0.032596234 0.017178247 0.03942904 0.08682885 0.01018634 0.084921435
0.06799946 -0.029414142 -0.012391428 0.0633801 0.06671393 0.08166413 -0.107115924 -0.017117402
0.08778222 0.0388093 0.09712467 -0.1261705 -0.07714466 0.012400268 0.027008587 -0.045224305
0.13516903 -0.03732553 -0.07449613 -0.020092392 -0.08391248 -0.010197255 -0.030361537 -0.13809125
0.07592909 0.034251705 0.07276651 0.111550435 0.117781006 0.0019345335 -0.11011016 -0.02347659
0.076297104 0.037207395 0.10314135 -4.3790977e-05 0.07107021 0.083594896 -0.15265146 0.06938371
0.004683156 0.049102854 0.053800773 -0.121947005 -0.07089901 0.11014902 0.12410836 0.07156566
0.041109 0.01732611 -0.0014677144 -0.0715761 0.097868785 0.0061452044 0.037704576 0.011051365
-0.0019220756 0.059979048 -0.13749598 0.029450167 -0.022479393 -0.00015686922 0.05076747 0.06338336
-0.043335635 -0.060068987 0.074311614 0.0870591 -0.052907985 0.026493559 0.072042935 0.04240908
0.09417386 0.021268476 0.026390588 -0.078794986 0.05023667 -0.09231543 0.06463721 -0.037500627
0.05669138 -0.015467576 0.020039886 0.10784448 0.009502401 0.078606546 -0.029101493 -0.01973793
0.11193697 0.0844295 -0.0112304995 0.040151644 -0.10418197 -0.028512422 -0.02736601 0.12048033
-0.06109727 -0.06847131 0.08536829 -0.01894013 -0.07573192 0.12294111 -0.12088931 -0.07309822
-0.081885025 0.13930736 0.078507364 -0.010582975 0.05801894 0.09208292 -0.060202528 0.12898746
0.1279956 -0.106592275 -0.0033142802 0.07361876 0.01435419 0.13552417 -0.09522509 0.09370183
-0.060972903 0.19223925 0.17483045 -0.1490784 -0.058949612 -0.13212621 -0.051406354 0.118439145
-0.05181525 0.048061796 0.15306836 -0.029222602 0.09852759 0.07788496 -0.123366974 0.047135066
-0.053228628 0.09803132 0.06742313 -0.022485191 0.08958693 0.1298692 -0.057647288 0.024139255
0.014149281 0.14588916 0.12775938 0.14525819 -0.02013796 -0.053513847 0.13256806 -0.12156329
0.18297158 0.022513645 0.27153188 0.08586443 0.11130407 0.13564722 -0.16403025 0.2207363
-0.076099776 -0.029209238 -0.04933881 -0.07603154 -0.09747156 0.07164734 -0.017284041 -0.04503743
-0.1129078 0.18311042 0.20258728 0.0071437955 0.08986599 -0.14203319 0.016384015 0.07322555

near_tower.lstm_embedding.bias_hh_l0 f4 [256]
00000000: 7ee4 a7bd fd4a f6bd 2a9d 193e 3559 9f3d
00000010: 3490 833c 65fb bfbd aa76 4e3d 1c8d b03d
00000020: 72dd fdbd cae6 353e b1f0 edbc 80cd 1ebd
00000030: 795a d8bd 2d6a ecbd aa0f 04be 5cfa 863d
00000040: 85a8 08be b068 bcbd 6eeb a23d c2d6 f7bd
00000050: d8bb e6bb b9f8 703e 0ae4 f0bd 509d e23c
00000060: fb5f c93d 7836 2c3e fd03 93bd 337d d53d
00000070: ec92 dabc f721 333d a7fd ac3d a852 093e
00000080: 3bb7 c53b 4749 7a3d 9eda 8cbd 769f af3d
00000090: 6658 6f3d 8c92 06be 36d6 2fbd 3cce 00be
000000a0: fc21 083d 5494 2c3d cfd2 733e d200 8fbd
000000b0: aaad 0abc 42f7 95bd 68d9 edbd fbb0 f83c
000000c0: 718e d63d 6031 aa3a 6a99 00be 9970 e8bd
000000d0: 9ae3 00bd 7282 c7bd 468a ebbc f20d 513e
000000e0: bdae c73d 3f02 8a3d 3e4c 093e d9a8 ccbd
000000f0: 8252 bcbb cb53 7d3d c9cd 4abd f65d 063e
00000100: 56ea cb3d f35b f8bd e41b 2b3b 3d68 c53d
00000110: f208 0dbd 566e ec3c 783c bfbd 59c7 c93c
00000120: 6ba3 14be 0db2 81bd ee50 ea3c 7e56 56bd
00000130: 73d3 663d abfb f73c 6401 a4bd 0452 583d
00000140: 47a0 74bd fc16 dbbd 8dcb 593d de71 893d
00000150: 22a2 0e3d a3f1 a83d 2f34 5fbb 48b1 0dbd
00000160: bab3 333c c4ce ce3b af5a dfbb cd94 85bd
00000170: 9aae 093e 2f8e d43c af39 f7bb 3e0e 36bc
00000180: fbb9 e03d 73a0 f23d aa85 3b3d 9ed6 d0bc
00000190: 0f5b 363d 07f2 ea3c a7cf 083e 36fd 21be
000001a0: 3097 e23c eaa3 853d 9dc3 c23d 3bb3 a1bd
000001b0: 8970 5a3d 16a8 b0bd cde3 4a3d 08c7 4fbd
000001c0: 2195 0ebe 1e70 e0bd 2e9b cdbd 8374 34bd
000001d0: 0824 00be 648e 233d 69e7 96bd 751e 0b3e
000001e0: 2379 97bd 6acf 083e ae1d 043e b4e6 5bbd
000001f0: 3833 1c3a 9b58 c93d 657d babd 01e7 c23d
00000200: 35ba adbd 5e6d 9cbd 7831 dd3d 0d07 9c3d
00000210: f888 db3d 53b4 8c3d 7f38 ffbc 21b2 b5bc
00000220: aa61 13bd 11a3 c1bd 44f3 89bb 083a aabc
00000230: aab8 853c a93d e33d 0f38 433d cd44 a43d
00000240: 3695 cabb e8e6 0f3d 2e26 ac3c 6d32 b43d
00000250: b5bc 043c 0e9a 833d 66e7 523d 1f2b 20bd
00000260: b22a 21bd 76ea 273c f164 b93b 6474 b5bc
00000270: 3b67 b23d a246 1dbd d605 473d 434f 3ebd
00000280: 86c3 18bd 13a4 3d3d 393c 58bd 14e1 a3bc
00000290: f196 9dbd 9b34 7b3d 75ea c73c 0317 9cbc
000002a0: e4db a53d 296d 8ebd 82e5 1b3e 94b3 ecbc
000002b0: e8ff ee3d bc4c 0b3d b6f1 e7bd 5f55 4abd
000002c0: 1388 773d 8a6d 663b 1c87 a5bc 18b1 693d
000002d0: b1e6 ee3b 7a7d 3b3d c6ef 153d d6b1 8dbd
000002e0: 47fe e13c fe7e 0bbd 4fec f03c cbfa f9bd
000002f0: aa96 d13d 76ee 93bd 39e0 753d 6249 c93d
00000300: 02a2 303d abac 8e3d f799 9aba 6b43 133e
00000310: 13cd a3bd d1ee 9d3d 79d2 c13c 867e 483d
00000320: 5ed2 8e3c c471 57ba 6382 b43d bf2b 7d3d
00000330: 9b2d b2bc 0ae2 dd3d cd55 0b3d 6cc6 bcbc
00000340: 20a7 d6bd 6117 72bd 6f4d b63d 4b20 e7bd
00000350: 4c8d f0bd 4735 8c3e f189 b03b 8f84 51bd
00000360: c46c ef3d a173 073e ae08 06bd 7c8e 58bd
00000370: 11fd 1dbc a622 ac3d 7a08 643d bdc1 26bd
00000380: 0a25 623d 6171 023e 243e 973d 9add c83c
00000390: d6d1 dbbd 7701 72bd 41db 1b3d 31bc 54bd
000003a0: 9417 143e 01ea e73d ec9a 8c3e d48c bd3d
000003b0: fb2d 463d e64b 9abd 7a80 26be 1151 e33d
000003c0: 2b33 2c3d 1c73 8dbc be83 b93d b39e ebbc
000003d0: b8cb 343d a0d4 073a e8e4 43bd c5a4 d43d
000003e0: 2eb6 a53d dcae 2e3e f066 093e f876 95bd
000003f0: fa29 883c ad8e 60bd 6f7f cb3d 3971 0d3d
-0.08197878 -0.12026022 0.1500136 0.07780687 0.016059972 -0.093741216 0.050406136 0.086206645
-0.12395753 0.1776382 -0.029045435 -0.0387702 -0.10564131 -0.11543689 -0.128966 0.06590721
-0.13345535 -0.09199655 0.07955061 -0.12101509 -0.0070414357 0.2353238 -0.11762245 0.027662903
0.0983276 0.16817653 -0.07178495 0.104242705 -0.026681386 0.043733563 0.08446818 0.13410437
0.0060338057 0.06110504 -0.068776354 0.08575337 0.058433913 -0.1314184 -0.042928897 -0.12578672
0.033235535 0.042133644 0.23810886 -0.06982578 -0.008464256 -0.07322551 -0.116137326 0.030357828
0.10476387 0.0012984686 -0.12558523 -0.11349601 -0.031467058 -0.09741677 -0.028752457 0.20415476
0.097501256 0.0673871 0.1340799 -0.09993143 -0.0057471404 0.06184749 -0.04951266 0.13121781
0.099568054 -0.12126913 0.0026109153 0.096390225 -0.03443236 0.028861206 -0.093377054 0.02463119
-0.14515464 -0.063327886 0.028603043 -0.05232858 0.056353997 0.030271372 -0.08008078 0.05281259
-0.059723165 -0.10697743 0.053172637 0.067111716 0.03482259 0.082492135 -0.0034058203 -0.034592897
0.010968143 0.0063112695 -0.0068162302 -0.06522522 0.13445511 0.025946705 -0.007544718 -0.011111794
0.10972973 0.118470095 0.04578177 -0.025492962 0.044520434 0.02867986 0.13360463 -0.15819249
0.027659982 0.06525405 0.095099665 -0.078955136 0.05332998 -0.0862581 0.049533654 -0.05072692
-0.13924076 -0.10958885 -0.10039364 -0.044056427 -0.12513745 0.039930716 -0.07368357 0.13585837
-0.07396152 0.13360372 0.12901947 -0.053686813 0.000595856 0.09831353 -0.09105948 0.09516717
-0.08482782 -0.07638048 0.10800451 0.07618532 0.10719484 0.068703316 -0.03115487 -0.022179665
-0.03598181 -0.094549306 -0.0042099077 -0.020779625 0.016323406 0.11095745 0.047660884 0.08020935
-0.006182338 0.03513232 0.0210143 0.087986805 0.008101632 0.06425868 0.05149021 -0.039103623
-0.039347358 0.010248771 0.005657785 -0.022150226 0.08711096 -0.03839744 0.04858955 -0.04646231
-0.03729584 0.04629905 -0.052791808 -0.020004787 -0.076948054 0.061329465 0.02440379 -0.019053942
0.080985814 -0.069544144 0.15224269 -0.028894223 0.11669904 0.034008726 -0.113253996 -0.049397822
0.060432505 0.0035160505 -0.020206027 0.057053655 0.007290684 0.04577396 0.03660562 -0.06918685
0.02758707 -0.034056656 0.029409556 -0.12206038 0.10233815 -0.07223217 0.06002829 0.0982845
0.043123253 0.069665276 -0.0011795153 0.14381187 -0.07998099 0.07711566 0.023659931 0.048948787
0.017434295 -0.00082185515 0.08813932 0.061809298 -0.021750262 0.10834129 0.034017373 -0.023043834
-0.10481095 -0.059104327 0.08901488 -0.11285456 -0.117457 0.27384397 0.0053875376 -0.05115181
0.11690667 0.13227703 -0.03272312 -0.05287026 -0.009642855 0.08405046 0.055672146 -0.040712107
0.055211104 0.12738563 0.07384899 0.02451973 -0.107333824 -0.05908343 0.038050894 -0.051937286
0.1446212 0.113239296 0.27461946 0.092553765 0.048383694 -0.07534008 -0.16259947 0.110994466
0.042040985 -0.017266802 0.09058331 -0.028762197 0.044139594 0.0005181525 -0.047825724 0.1038299
0.08091389 0.17058891 0.13418174 -0.07298082 0.016621578 -0.054823566 0.099364154 0.034531806

season_tower.lstm_embedding.weight_ih_l0 f4 [256, 4]
00000000: 7f0e 0a3e 66c6 8fbd 2c73 593e 4762 963d
00000010: 2caa 25be 7712 d4bd cfd1 2bbd 8c39 4cbe
00000020: 01e3 f03c ab95 31be ea3d 0b3e 4017 353e
00000030: 80e3 0e3e 67c3 3a3d 4f6b a33d dd1c 843d
00000040: 8d8f ff3c b929 8b3b 4860 703e 5d94 843d
00000050: 9120 e4bc 8556 2b3c b399 b0bc 0abf bebd
00000060: d10d 513b 1c91 f4bb 9906 393e 17ee bb3d
00000070: af72 023e 76bd b6bc 8e56 fb3d 9ed6 a43c
00000080: 6827 a1bd 4f3f f2bc f489 90bd 0aa1 cf3d
00000090: d9bb fd3d b041 c4bd 7073 823e 04a9 123e
000000a0: 606e c03d d64e 87bd f23a 12be eaf1 0e3c
000000b0: fe11 513d ce75 99bd 43c3 503b 629d ee3b
000000c0: 0203 94bd dafd e7bd d39d 29bd 2275 303d
000000d0: f192 18be 29be 27be fadb 4dbe 9033 493d
000000e0: e8ee 5ebd 81ba d23c 6080 333e 0b95 b03c
000000f0: f4c0 633d f999 98bc 2dd3 713d 8039 e63d
00000100: 1e02 f73c b403 50bd 644f 92bc f9ca 5d3d
00000110: ce9e b2bd bdcb 87be 2d8d cabd 43d5 bcbd
00000120: 4111 63bd b98f 9f3d 12b9 53bd 6ad3 84bb
00000130: 55e7 993d 1b15 b6bd e211 b4bd 9122 0d3e
00000140: ced4 303e 4db4 99bd 830c 933d 26e6 c73d
00000150: 7561 d13d 131f 06be fbd8 27bd 294e 193e
00000160: abed 95bc 820f 8abd 9d49 2e3d a55d 283e
00000170: 0723 ff3c 1a68 86bd dedf a13d b124 c03d
00000180: b032 cf3b 8cd1 a13c ff9e 603e db95 64bc
00000190: 1eba 873c 4392 8bbd f2ad 693d 7d70 9d3d
000001a0: f7a7 18bd 4ad0 a43d 048c f53c 3358 ea3d
000001b0: 9cbe 8a3d 77a2 98bd 68a3 d83d 080d 69bd
000001c0: 32e4 013e e61d 88bd 22ff a33d 0722 683d
000001d0: 8c57 3dbe e81e cbbd 6d5e de3b 1cc5 cdbd
000001e0: cb7e f6bd 64a4 a2bd 5fcb 843c edd9 a83d
000001f0: 844f aebd ebc7 f63b 28ee 85bd 8b28 fc3c
00000200: 2a16 cb3d 4fd9 013d 3378 60bc 59da a43d
00000210: 68ec bdbd 408e e93c e17f b93d 93db 573d
00000220: 576e afbd d99c 9e3c 2451 b8bd 1231 4dbd
00000230: de0a 2f3e 0ce0 b5bd 2ac0 1a3e 4b4e ec3c
00000240: 6154 bbbc 7e6a 8c3d 306c 2a3b 7742 11bc
00000250: 6572 b7bc 14d6 173d 9df2 a8bc b440 92bc
00000260: 25fe c43c c4e9 f0bd de08 9f3d 4790 0c3e
00000270: 0fd0 873d 490b babd 1549 ba3c 1a7c f93c
00000280: 6e1b bb3d 5c7e 84bc 0e27 acbc c5a1 223e
00000290: 6f33 39bd 837e 5bbd 2048 a9bc 3d5e 9ebd
000002a0: 4a8b 653d 9d18 003d 50c0 17bd 9150 ac3d
000002b0: dfd3 0f3e 61c2 a5bd 9c03 02bd 3cd3 9f3d
000002c0: bc91 723d c793 8e3c 7bec 343d b7c9 7c3e
000002d0: c551 d6bd f4ca 10be 869c 913d be4b 923d
000002e0: af8b 0c3e 5c22 abbc 724d 373e f3a4 363e
000002f0: 58f7 293e 08a4 db3d ca27 513d 671f 9f3d
00000300: 2688 0a3c 9ee8 b73d 2357 183c 575a 003e
00000310: 3f9e b53d 4728 cabd ac1e 90ba e94a 343a
00000320: 5ba4 a8bc 45d3 dcbc d1b3 213e 8c7f 903d
00000330: 0396 dc3b d47f 6bbd 0770 73bd 3250 c53c
00000340: 594d ccbd 900d d73c c0d3 973c f81e df3c
00000350: 06f3 e13d c766 703d 2f85 83bd 33eb ec3d
00000360: fc13 cd3d 0aab 2abd 6279 eb3d b990 1b3e
00000370: 5b66 58bc b68b c2bd e8d7 133e c727 483c
00000380: f6f1 24bd d2de eabd 9594 03be 5b98 a63c
00000390: 243b aebd c159 65bd a0eb 043e a029 1a3e
000003a0: 5945 0c3e 646a 05be be9b 163d 58b9 353d
000003b0: c8f6 06bd 9cfb b7bd a615 07be 08c0 983d
000003c0: 188b c13b 32ac 1bbe 53b4 6a3c 5f8c cabb
000003d0: 6719 163e aa33 87bd f1d5 4e3d da00 a73b
000003e0: b903 45bd 14ca e73d b7d5 053e f610 0d3e
000003f0: e38d 923d f7f3 eb3d 8f1d b73c 40df 893d
0.13482092 -0.070202634 0.21235341 0.07342964 -0.16178197 -0.103550844 -0.041948136 -0.19943827
0.029405119 -0.1734225 0.13597837 0.1768465 0.13953972 0.045596506 0.07979452 0.06450818
0.03119638 0.004246917 0.23474228 0.064736106 -0.02784756 0.01045764 -0.021557664 -0.093137816
0.0031899104 -0.0074635874 0.18068923 0.091762714 0.12739061 -0.022307139 0.12272368 0.020121869
-0.07868844 -0.029571204 -0.070575625 0.10138138 0.12389345 -0.095828414 0.25478697 0.14322287
0.09396052 -0.06606834 -0.14280298 0.008724669 0.05104255 -0.074931726 0.0031854666 0.007281945
-0.07227136 -0.11327715 -0.04141028 0.043080457 -0.14899804 -0.16381134 -0.20103446 0.04912144
-0.054427058 0.025723698 0.1752944 0.021555444 0.055603936 -0.018628107 0.059039284 0.11241436
0.030152377 -0.05078478 -0.017860122 0.054148648 -0.08721696 -0.26522627 -0.098902084 -0.09220364
-0.055436376 0.07791085 -0.05169017 -0.004053523 0.07514826 -0.08890744 -0.087924734 0.13782717
0.17268679 -0.07505093 0.07180121 0.09760694 0.102236666 -0.13097791 -0.040978413 0.14971222
-0.018301805 -0.06741239 0.04255067 0.16441973 0.031144632 -0.065628245 0.079040274 0.09381998
0.006323181 0.01975324 0.21935652 -0.013951744 0.01656824 -0.068150066 0.057050653 0.07687471
-0.03726956 0.080475405 0.029973991 0.11442604 0.06774637 -0.07452863 0.10578042 -0.056897193
0.12684706 -0.06646328 0.08007647 0.056673076 -0.18490428 -0.09918004 0.006786159 -0.10047361
-0.120359026 -0.07941511 0.016210256 0.08244691 -0.0851126 0.0075311563 -0.06539565 0.030781051
0.09916337 0.031701382 -0.013700533 0.08049459 -0.092736065 0.028510213 0.09057594 0.052699637
-0.085659675 0.0193619 -0.08999851 -0.050095625 0.17093989 -0.08880624 0.15112367 0.028845927
-0.022867383 0.06856249 0.0026004426 -0.008865944 -0.022393415 0.037069395 -0.0206235 -0.017853118
0.024046967 -0.11763337 0.07765363 0.13726912 0.06631481 -0.09084184 0.022739926 0.030454684
0.09136091 -0.016173534 -0.021014716 0.15882023 -0.045215067 -0.053587448 -0.020664275 -0.07732818
0.05604104 0.031273473 -0.037048638 0.08413804 0.14045666 -0.080937155 -0.031741723 0.07803962
0.059221014 0.01740445 0.044170838 0.24686323 -0.10464815 -0.1413992 0.071099326 0.07143353
0.1372516 -0.020890407 0.17900637 0.1783636 0.1659826 0.10724646 0.051063336 0.077696614
0.008455312 0.08979915 0.009298119 0.12534462 0.08868074 -0.098709635 -0.0010995469 0.00068776176
-0.020586183 -0.02695621 0.15791251 0.07055578 0.00673175 -0.057494953 -0.05943301 0.024086092
-0.099756904 0.026251584 0.018533587 0.027236447 0.11032681 0.058691766 -0.06421887 0.11568298
0.10013577 -0.04166702 0.11497761 0.15191926 -0.013207997 -0.09499304 0.1443783 0.012216515
-0.040269814 -0.11468281 -0.12849648 0.02033632 -0.08507374 -0.0559938 0.12980509 0.15054941
0.13698329 -0.13028866 0.03676962 0.04436621 -0.032950193 -0.089835376 -0.13191852 0.07458502
0.005906474 -0.15202406 0.014325219 -0.0061812843 0.14658128 -0.06601651 0.050497 0.005096537
-0.048099253 0.1131784 0.13069807 0.13776001 0.07155969 0.11521142 0.022352962 0.06732035

season_tower.lstm_embedding.weight_hh_l0 f4 [256, 64]
00000000: 09f5 3bbe 95f8 433e ebef b33d 3288 6b3c
00000010: 5dad c23b 9f55 423e 3b6d 113d 589c 9bbd
00000020: fe65 713e 7b0c 61be 0e81 2ebe 7693 96bd
00000030: 88ce 923d 6f5f 5f3e 3cd4 d5bb 2250 013d
00000040: f0e6 60be 3d11 acbe f1c7 9d3a 6c4b cfbb
00000050: 14ae 42be 50e0 94bc 7ac9 44be b86f 8ebd
00000060: c97c f4bd 9a2d 16be 99ff 7dbe ab0d bfbd
00000070: ec8c 8fbb 5893 e43d e709 b8bd 4f94 02bd
00000080: 9005 d83d 50e3 69be 9e5c 89bc 78cb 1abd
00000090: 5a29 413d e3b0 d0bd 9071 e3bd 604c acbd
000000a0: f6c9 053e 4479 0dbd f780 303e 534d bfbd
000000b0: da23 eb3c b372 1b3e 260c 05be 4263 0dbe
000000c0: 7cd7 d5bd bc5c 7abe 2e10 09be 94ee b53c
000000d0: a69c 18bd 8f08 bbbd bf1e 453e 5260 37be
000000e0: 8ac5 183d cdd0 443e fbf3 0e3c 815b 283e
000000f0: db71 28be 6bb4 9fbd 4014 13be 54ff 013d
00000100: e610 b1bd b29c 543e 0f31 793e 9647 f83d
00000110: ffea 38bd 71fa 1a3e f3ee 3bbe eb92 4cbc
00000120: 00a6 34bd 66e8 9cbd 13e1 e5bd 2344 e33d
00000130: 7122 8cbd b660 463e ae04 dfbc ae16 38be
00000140: 216c b4bc 9a52 af3b 798c a83d 7340 d73c
00000150: 837c 973c 4660 a3bd 1f35 84bd 4b5e 943d
00000160: 0caf c6bd 779f 9b3d dd36 88bd 466b c9bd
00000170: e699 813d cfb8 da3c d43b 333e ed00 1f3e
00000180: f4a3 1d3d 35ae 28be fd8f d13d 9cef 2e3e
00000190: cc9d 723e ee52 e8bd ef09 39be 63af 7fbe
000001a0: 2386 e63c f7ff f9bd 7ab8 103e 2360 2cbe
000001b0: 63a5 8c3c ca66 063d cb06 05be 90ef 9e3c
000001c0: f001 5e3d a897 35be 96b5 4f3e 0b03 f7bb
000001d0: 48b8 aebd dd02 c6bc 7db9 d83d 0dca ffbd
000001e0: c4d4 f53c e9fd 813d 5314 5fbd 4fbc 143e
000001f0: a1e9 323e 5863 a9bc f9f0 93bd 8824 9e3c
00000200: 2920 df3a a474 60bd a98b dcbd 0291 373e
00000210: ad9d 433e 5f70 583d fd4c a9bd 0a7f 28be
00000220: 434d 84be 41b6 46bd 3643 973d 865a e7bd
00000230: 3b6d b9bc cb88 cfbd 1d75 6e3c ec0c 14be
00000240: d76a 15bd 0df8 463d cbcf 0c3e 1e70 d53c
00000250: 4b2b 473d 1b11 5ebc aa8c 82bd bfa8 e93d
00000260: 29ca 18be 70fa a63d a34f 64bd d75e b9bd
00000270: c16e 043e b42e 4d3d 4231 883d d1ce d43d
00000280: 1f4a e6bd f4a4 9cbd 27b0 b1bd d5f2 ecbd
00000290: 1e6f 4cbd d0a3 1fbe 14df e7bc 9620 0abe
000002a0: 1857 d8bd 5fe7 2dbc 90e8 f13d 2548 27be
000002b0: 7dc9 853d 60a8 1f3d 4042 34bd a92f 843d
000002c0: a83e 0c3d b992 9c3d ad73 a13d 3019 bebd
000002d0: 1ca1 9fbd 4c9f 8e3d 946b a9bd 1492 fdbd
000002e0: b99d 10bd 5dee 513d 81bd f13c d261 97bc
000002f0: 6cd1 1abe e672 ffbd 648c 92bd 4ea0 52be
00000300: 3ad0 38bd 49e2 6bbd 0c3c c1bc 0ea2 aabd
00000310: 9211 61be f8ce d23b eeea c73d 590c 26be
00000320: 3abd 053e 9ccd 0e3e 5529 b93d eb7c 9ebd
00000330: 1116 913d 5656 8dbc 4a6d 943d 9b95 04be
00000340: 9244 03be 9a95 59be 94a8 a8bd 7b77 55bd
00000350: 2a85 7bbd 83b3 3b3d 4861 adbd 8666 c03d
00000360: 8229 b53d dcf2 d4bd 4b93 83bd be8f 3c3d
00000370: 37ed 80bd a1ed a0bc 6534 d1bd ea07 593d
00000380: bb55 72be 2bdc 20be 218f 973a c1c8 40bd
00000390: 188d 013c 9adf b1bd 9a40 5bbe 4f32 4d3c
000003a0: 0586 adbd 8e8d 083d 7e49 40be d05f 15bc
000003b0: 29cc 04be a601 13be 9c2f 13bd ca79 ebbd
000003c0: e861 543d 07e7 d83b 8931 323d c572 1bbe
000003d0: 0ca5 26bd ff71 58bd 3f8f 35bc 4cbd 063d
000003e0: 3af2 2fbe b37a c5bc e1b1 95bd 6abd 38be
000003f0: 7bf6 bbbd 6c21 3ebe 988c 633d 1556 5a3d
-0.18355192 0.19137795 0.08785995 0.014375733 0.0059410767 0.18977974 0.03550456 -0.075981796
0.23574063 -0.21977417 -0.17041418 -0.07352345 0.07168299 0.21813749 -0.0065255444 0.03157056
-0.21963096 -0.33606902 0.0012037737 -0.0063261297 -0.19011718 -0.018173367 -0.19217482 -0.069549024
-0.119378634 -0.14665833 -0.24804534 -0.09328779 -0.004380813 0.11160916 -0.08986264 -0.03187972
0.10547936 -0.22840619 -0.016767796 -0.0377917 0.047158577 -0.101899885 -0.11105645 -0.08413005
0.13065323 -0.034539476 0.17236696 -0.0934092 0.028703619 0.15180473 -0.12992916 -0.13807395
-0.10441491 -0.24449438 -0.13385078 0.02220849 -0.037258767 -0.09132492 0.1925001 -0.17907837
0.037297763 0.19220276 0.008725162 0.16441156 -0.16449682 -0.07798084 -0.14363194 0.03173764
-0.08645801 0.207629 0.2433512 0.12123029 -0.045145985 0.15134598 -0.1835287 -0.0124862
-0.044103622 -0.07661514 -0.1122457 0.110969804 -0.06842507 0.1937283 -0.027223911 -0.17977402
-0.022024216 0.005350423 0.08229918 0.026275849 0.018491989 -0.07977347 -0.064554445 0.072445475
-0.09701356 0.07598775 -0.06651089 -0.09834914 0.06328182 0.026699452 0.17503291 0.15527697
0.038486436 -0.16472705 0.10232542 0.17083591 0.23693007 -0.113439426 -0.18070196 -0.24969248
0.028140133 -0.122070245 0.14132872 -0.16833548 0.017168706 0.03281287 -0.12990873 0.019401342
0.054201066 -0.17733634 0.20284113 -0.0075382045 -0.085312426 -0.024171287 0.10582254 -0.1248971
0.030008681 0.06347258 -0.054462742 0.14524959 0.17471935 -0.020677254 -0.07223696 0.019304529
0.0017023134 -0.054798737 -0.107688256 0.1792641 0.19103117 0.05284154 -0.082666375 -0.16454712
-0.25840196 -0.048513655 0.07385866 -0.11296563 -0.022635093 -0.10133513 0.014554289 -0.14458054
-0.036478844 0.048576403 0.13751142 0.026054438 0.04862527 -0.013553883 -0.06374486 0.11409139
-0.14920868 0.08153236 -0.05574001 -0.090512924 0.12932874 0.050093368 0.0665002 0.103910096
-0.11244606 -0.0764865 -0.086761765 -0.11569754 -0.049910657 -0.15589833 -0.028304614 -0.13488993
-0.10563487 -0.010614245 0.11811936 -0.16336115 0.065325715 0.038978934 -0.044008493 0.06454403
0.03423944 0.076451726 0.078833915 -0.09282148 -0.07794401 0.06963977 -0.08272472 -0.12381378
-0.035306666 0.05125271 0.029509308 -0.018479262 -0.1511895 -0.12473087 -0.07155684 -0.20568964
-0.045120455 -0.05758885 -0.023588203 -0.08331691 -0.21979359 0.006433364 0.09761606 -0.16215648
0.13060465 0.13945621 0.090410866 -0.0773867 0.07084287 -0.017253082 0.07247408 -0.12947695
-0.12819126 -0.21248475 -0.08235279 -0.0521159 -0.061406292 0.045825493 -0.084658206 0.09394555
0.088458076 -0.10397884 -0.06424578 0.04603552 -0.06295245 -0.01964456 -0.102150716 0.052986063
-0.23665516 -0.15708987 0.0011563041 -0.047066454 0.0079071745 -0.08685227 -0.21411362 0.012524202
-0.08472828 0.033338122 -0.18778035 -0.009117082 -0.12968506 -0.14356098 -0.035934076 -0.11497839
0.051851183 0.0066193375 0.04350427 -0.151805 -0.040684745 -0.05284309 -0.011081516 0.03289537
-0.17182246 -0.02410636 -0.07309318 -0.18041006 -0.09177872 -0.18567437 0.055554003 0.05330475

season_tower.lstm_embedding.bias_ih_l0 f4 [256]
00000000: 5317 12bd ab94 043d 7d88 bdbc b338 d43d
00000010: ccd9 503d e589 223c d95e 653d af89 013e
00000020: eed6 063e 2501 f1bc 3692 103e 17a0 0b3e
00000030: bead 3abd 743b 9ebd 74ca 4e3c 29f1 e03d
00000040: 2fb0 35bd f271 9d3c 1325 943d 02d2 6f3d
00000050: ae80 f13c 7d43 a23d cdb6 803d c7da 193d
00000060: 4806 503d e1e8 f53c ace0 45bd ede4 3f3d
00000070: d044 fd3c e532 1b3d 22e3 303d aba5 583d
00000080: 6eac 6abd 198f 74bd 7920 7dbd 06ae ec3d
00000090: 8b5b 4abc 7a69 0ebc cd5c aebc 7289 7f3c
000000a0: 35b5 febd f800 72bd 46b6 18bd d412 ab3d
000000b0: 4d92 5c3e 647b 96bd 7205 a43d 44a6 6e3c
000000c0: 8554 37bd b297 0f3e 00fa b53d 591a 12bd
000000d0: ab26 093e ab5c 37bc cc48 c23d 846f 3cbd
000000e0: cb00 c2bd ae4b 15be 5939 763d fb72 813d
000000f0: 7c1c 6b3d 7def 5dbd 7682 9fbd fdc5 003e
00000100: 8d63 fcbd 7466 013e ce21 a2bc 099e 80bc
00000110: ca1e 033e 2177 dd3c 3542 63bd 3128 f7bd
00000120: e2ff 843c 7e7c 143e 852e 733c d42c 08be
00000130: 415f e1bd cb79 88bc 39d6 5dbc f518 093e
00000140: 2a3c 85bd 0068 9abc 342d a03d 6791 f1bd
00000150: fa19 483e be58 8dbd 1bf1 1d3e c2d4 e43d
00000160: e0a8 c73c e957 c93d 347b 3f3d 3bf1 a13d
00000170: 8ac0 06be 4e0d e23d 2973 bbbd 1f5a 01bd
00000180: 892f 683d 636a 29bd 8706 c3bd 7470 b8bd
00000190: 5ddf cdbd 089b babb ed3c b13b 3c3a 62bd
000001a0: 6f99 d1bd 4ff6 113d 65c8 203d 7201 a33d
000001b0: f740 7f3d 4150 d83c 7511 9c3d 8358 a53d
000001c0: 66b9 0ebe 70db 893c 3d33 063c 06a6 c93d
000001d0: 1685 e33d 91b6 4c3d 89a8 6bbd 2103 d63d
000001e0: 091c b53c 9074 2c3c 2e33 1bbd 2448 163c
000001f0: 6ea5 e1bd efce a33d 53e6 87bd 506d 45bd
00000200: 53b1 663d 1d26 0f3e da03 d73d 290a 9e3d
00000210: 7e5b 03be 5d79 36ba 5eea 233d aa62 08bd
00000220: 8e59 073d c94f 89bd c401 3d3d 2c21 253d
00000230: 706f 90bd 2bc5 ff3d f9e1 a43d 112a 16be
00000240: aa83 95bd 02d6 713d bac5 d7bd b3d9 0cbd
00000250: 0d45 42bd 211e efbd 48ac e93d a69a cc3d
00000260: f7ba b0bd b5b6 4dbd 8afb 8bbd 3c19 b5bd
00000270: cfae 493d eea9 b4bc d69c ba3d df84 e33d
00000280: cfd8 e53d 08b3 b3bd 5f4c e03d c164 133a
00000290: a855 a1bc be7d 6ebc 616c a1bd 3b49 dabb
000002a0: 593d 383c 9161 11be de10 5dbd 67d3 893d
000002b0: d602 2bbc 323b c23d 86c8 b3bc 8921 bbbd
000002c0: 4554 393d 878d 9cbc ad42 91bd 2986 d83c
000002d0: e491 7b3c f55e 18bd 6661 063b 6fac d3bd
000002e0: c531 3f3d a1d4 953d 8c12 cdbc 972e 943d
000002f0: 897a bcb9 b235 aebd 9040 263d f37d 213b
00000300: c067 bd3d f250 3cbc 2a14 a3bc 5ef9 adbd
00000310: 445d d93c c597 81bb f2d3 9ebd 22bb c0bd
00000320: 544b ba3d e1e7 303d ad69 2f39 c892 123e
00000330: 1ab3 fd3c b638 2b3d 6f61 aa3c bc60 203d
00000340: 2f97 b6bd 3b5d 633e 6173 6b3e 2640 043d
00000350: 3020 983d 2734 61bd 1c05 02bd dd77 d93d
00000360: 5351 ceb8 68aa f03c 0003 2d3d d39a b73d
00000370: 5fdb 953c 9e7b 823c a7ca b0bd 6836 f63d
00000380: 3d8f 333d 2706 333e b373 0dbe fe7f 5dbd
00000390: 36f6 863d 6e34 a73d 4b21 70bd e67c 97bd
000003a0: 25c6 04be 06d0 3fbd 2172 773b f8c2 6b3d
000003b0: 4ca2 9e3d bb68 0bbe 2fbf 633d 6adf 28bc
000003c0: 69ee 3abc d03b 703c 4433 83bd bdaf f03d
000003d0: b93c 893d 6296 cb3d 2732 81bc 9232 2c3d
000003e0: ad16 863c a29b e6bd b39d a1ba 06ce 9c3d
000003f0: 9e3a 9fbd afbe 643d c030 ef3d c885 943d
-0.035666775 0.032368343 -0.023136372 0.10362377 0.050988957 0.009920572 0.055998657 0.12650178
0.13167927 -0.029419491 0.14118275 0.13635288 -0.04557585 -0.077261835 0.012621511 0.10983498
-0.044357475 0.019219372 0.07233634 0.05854989 0.029480305 0.079230286 0.062848665 0.037562158
0.05078724 0.030018272 -0.048309967 0.04684918 0.030916601 0.037890334 0.04318536 0.05289237
-0.057293348 -0.05970678 -0.061798546 0.1155663 -0.012350927 -0.00869214 -0.021284485 0.015596734
-0.12436906 -0.059082955 -0.037283204 0.083532006 0.21540184 -0.07347754 0.08008851 0.014566008
-0.04475834 0.14022711 0.08885574 -0.03566966 0.13393657 -0.011191527 0.09486541 -0.046004787
-0.094728075 -0.14579651 0.060113285 0.06320759 0.05740021 -0.054183472 -0.07788555 0.12575527
-0.12323675 0.12636739 -0.01979151 -0.015700357 0.12804714 0.027034344 -0.05548306 -0.12068213
0.016235296 0.14500615 0.014842634 -0.1329835 -0.11004496 -0.016659638 -0.013539844 0.13388427
-0.06505616 -0.01884842 0.07821122 -0.117953114 0.1954116 -0.06901692 0.15424006 0.11173393
0.024372518 0.09831221 0.046748355 0.07907339 -0.13159385 0.11037694 -0.091528244 -0.031580087
0.056685958 -0.041361224 -0.09522729 -0.09005824 -0.10052369 -0.0056947507 0.0054088742 -0.055231318
-0.10234343 0.03563529 0.03925361 0.0795926 0.062317815 0.026405456 0.07620517 0.08073523
-0.13937911 0.016828269 0.008190927 0.098461196 0.111093685 0.049978796 -0.057533775 0.104498155
0.022108095 0.010525838 -0.037890606 0.009172473 -0.11017881 0.07998454 -0.06635728 -0.04819995
0.056321453 0.13979383 0.104987815 0.07716782 -0.1282787 -0.00069608336 0.04001843 -0.03329722
0.03304439 -0.06704671 0.046144262 0.04031484 -0.07052505 0.12488779 0.08050913 -0.14664485
-0.073005036 0.059041984 -0.1053576 -0.0343873 -0.047429133 -0.116756685 0.11409813 0.09990434
-0.08629411 -0.05022307 -0.06835087 -0.08842704 0.049238976 -0.022053685 0.09111945 0.111093275
0.112229936 -0.08774382 0.10952067 0.00056226185 -0.019694164 -0.014556346 -0.07882 -0.006661562
0.011245095 -0.14197375 -0.053971164 0.06729775 -0.010437688 0.09483947 -0.021946203 -0.09137256
0.04524638 -0.019110454 -0.070927955 0.02643116 0.015354607 -0.037199933 0.0020504831 -0.103356235
0.046678323 0.07315946 -0.025033258 0.07235449 -0.0003594945 -0.08506335 0.040588915 0.0024641722
0.09248304 -0.011493908 -0.019907076 -0.08494829 0.02653373 -0.00395486 -0.07755269 -0.09410693
0.09096399 0.043189887 0.00016728668 0.14313805 0.030969191 0.04180213 0.020798413 0.039154753
-0.08915555 0.22203533 0.22993232 0.03228774 0.07428014 -0.054981377 -0.031743154 0.10618565
-9.837993e-05 0.029378131 0.04223919 0.08965077 0.01829308 0.015928086 -0.08632403 0.12022096
0.043837775 0.17482816 -0.13813667 -0.05407714 0.0658993 0.08164297 -0.0586255 -0.07396869
-0.12966211 -0.046829246 0.0037757235 0.057558984 0.077457994 -0.1361417 0.05560225 -0.010307172
-0.0114093805 0.014662698 -0.064062625 0.117522694 0.06701035 0.099407926 -0.015770985 0.042040415
0.016368235 -0.11260153 -0.0012330323 0.07656483 -0.07774852 0.055845913 0.1167922 0.07252079

season_tower.lstm_embedding.bias_hh_l0 f4 [256]
00000000: b16e 373d 860a 4abc ae7c 4cbd c25f 353d
00000010: 8853 44bc c4a5 c4bc 0fac 24bd 7498 a8bd
00000020: 6a82 0e3e 78a2 f23c d04f 4c3d 4f48 25bd
00000030: fbfb c5bd 16cb db3c 7f3a 24bd 848d a4bd
00000040: f595 d33d 251d ec3d 38ac 5e3e 5099 ed3d
00000050: a1e8 843c 021c f4bc 61e1 4abd 7113 e23d
00000060: f858 f2bc a158 5d3d aba0 87bd fadd 0abd
00000070: 8ee6 af3d d87a 1a3c 5c30 12be 53fc d93d
00000080: faea 903d 320a 1a3d e594 a33d 100a a83c
00000090: 8556 30bd df9d 4a3d ba2f ff3d 7ffa 1f3e
000000a0: 8b55 213d 6125 cdbc eafd 293e c62b 0d3e
000000b0: d707 293e 2c2c 9c3d 7b21 c83d cd57 513e
000000c0: e243 abbd 683b e63d 8fe9 97bd 3159 d63d
000000d0: a6b0 d9bb 31d0 723b 8021 cc3c 81c8 e3bb
000000e0: 47a9 14be a942 debd bbac c33d e71f 893d
000000f0: 6184 b13d 875b a238 5ce6 9d3d c8e5 45bd
00000100: 8b13 303d 2e98 fa3c 2ceb 9c3d 9ff3 40bc
00000110: f561 3e3e 9a23 f7bd a933 8bbd 8d4b 0abc
00000120: aad8 a0bd eca8 2a3c 0568 c83d 35b3 d53d
00000130: 2ea2 9a3c 38ef e43d 9a79 363d 84a6 f63d
00000140: 370a d23c ebdf 193e 5a41 963d e9e7 c63d
00000150: 1221 3e3c c65b fa3c eb90 5ebd a18e 013e
00000160: 50ff 49bc d15a cf3d 510f cdbd 6085 66bd
00000170: 1403 473d 5709 293d 4570 19be 5870 ee3b
00000180: fb60 0abe 55b5 02bd e5a8 ccbd 5ec8 9f3b
00000190: 78df dabd 2830 063e 961f d03d 8250 01bc
000001a0: c827 a63d 9590 8bbc f39c 77bd 2b38 8fbd
000001b0: 1442 433e 569a a93d b63a fcbc bce5 8c3d
000001c0: 9111 433c df05 4d3d d3a9 4fbd 9f60 373b
000001d0: c073 21bd a10c 30ba a1d5 4a3c ffac 373d
000001e0: 6847 84bd 2667 d43d c4f8 c43d 5493 b33d
000001f0: 3c16 a03d c178 6ebc 36fb 783d 786c ecbc
00000200: f83a b8bd b59e fbb9 c283 473d 7f7d b2bd
00000210: 7208 40bd e086 f83d 68ea 3c3d e6a2 c4bc
00000220: cedf 0a3e b85b 0cbd b5c2 d6bd 829b 1cbd
00000230: cd0f 683d a9ca 4b3d 5303 273b 51aa 0fbe
00000240: c540 9c3d b77e 10be 2eff 84bd 379a 413d
00000250: 0fe8 64bd 4db1 9a3c e388 80bd d4c6 bb3d
00000260: 3ea8 2e3d 9fb9 a7bc 2423 653d c6c9 abbd
00000270: d7f0 78bd 6e4d f63d b585 e7bd e486 ce3d
00000280: 5466 ee3d 40f2 14bd b8a4 b13d 1f36 823c
00000290: faa4 bb3c af2a d1bc 5c17 bd3c dc34 8ebd
000002a0: 9af1 103d 9f76 ca3d 682c dc3d ea08 bcbd
000002b0: 901e fcbd 6e9e 803d 273d a8bc f4af 8dbd
000002c0: 701c db3b 3ccb 97bd 4927 aa3d 025c a8bd
000002d0: 599c 14be f17b ddbd 1bbd 8c3d a812 43bd
000002e0: 97a9 be3c b629 9b3d 97c1 83bd 4963 a93c
000002f0: b885 9c3d 91a4 bbbd 7b14 933b 5f20 913d
00000300: ca9d 193d fbde 0f3e 0c80 5dbc 3ac3 56bd
00000310: 17d3 e23d e014 ba3d e725 75bd 4e7e 013e
00000320: c2f0 9bbc c52a f03b bee5 4bb6 0d3b 723d
00000330: 4c0f 1cbe 7f9e db3d 1957 ba3c 0b8e 8ebd
00000340: 106d b03b 9d30 433e 3a07 1a3d 2518 9e3d
00000350: b0fe e33d a061 e0bb c444 233d 6d47 84bb
00000360: 09e5 1c3e 91a0 593e f329 a6bc 397a 93bc
00000370: a486 1ebd 1b64 173d 5492 fabb 770c 69bd
00000380: ea02 c23c d333 983d a7b2 9c3d f3c4 123d
00000390: 54ef acbd 8d2c 85bc d485 ee3d 7170 85bd
000003a0: befa 0cbe 09af 12bc ec2f 44bd 2340 043e
000003b0: f944 303e 2108 c33d cd11 b43c 3aae 213e
000003c0: fcf3 fb3c 91a4 bb3d 0e34 4bbb a671 68bd
000003d0: cafd b03c 26a5 9b3c 195a b53d d48c 1ebd
000003e0: 1b83 083d ea28 3fbd c7b1 b6ba 3c71 cebc
000003f0: 183d ad3d 3bc0 f43d 1eeb 92bd 5a1f 313e
0.044783298 -0.012331611 -0.04992359 0.044280775 -0.011982806 -0.024004824 -0.04020315 -0.08232203
0.13916937 0.029618487 0.049880803 -0.040352162 -0.09667202 0.026830237 -0.04009485 -0.080348045
0.103313364 0.115289964 0.21745384 0.11601508 0.016224207 -0.029798511 -0.049531344 0.110388644
-0.02958344 0.0540396 -0.06622442 -0.0339031 0.08588897 0.009428702 -0.1427626 0.1064383
0.07076068 0.03760738 0.07987384 0.02051261 -0.04305126 0.049466964 0.12460275 0.156229
0.03938822 -0.025042238 0.16600767 0.1378623 0.16506897 0.076256126 0.09772011 0.2044365
-0.08362557 0.112417996 -0.07417595 0.10466231 -0.0066433726 0.0037050361 0.024918318 -0.006951392
-0.14517699 -0.10852558 0.0955443 0.06695538 0.086678274 7.74181e-05 0.07709953 -0.04831484
0.042987388 0.030590143 0.07662043 -0.011776834 0.18592055 -0.12067337 -0.06796963 -0.008440864
-0.078538254 0.010416251 0.09785465 0.10434572 0.018876161 0.1117844 0.044549562 0.12043479
0.025639636 0.15026824 0.073366836 0.09712202 0.011604564 0.03056134 -0.054337423 0.12652065
-0.012328938 0.10124744 -0.10012687 -0.05627954 0.04858692 0.041268673 -0.14984234 0.007276576
-0.13513558 -0.031911213 -0.099931516 0.0048761806 -0.106871545 0.13104308 0.101622745 -0.00789273
0.081130564 -0.017036716 -0.060452413 -0.06993135 0.19068176 0.0828139 -0.030789714 0.06879756
0.011906044 0.050054427 -0.050699066 0.0027981175 -0.03941703 -0.0006715749 0.012380035 0.044842716
-0.06458932 0.103712365 0.09617761 0.08768335 0.07816741 -0.014555157 0.06078645 -0.028860316
-0.089956224 -0.00047992697 0.04870964 -0.08715343 -0.046883054 0.121351 0.046121985 -0.024003457
0.13561937 -0.034267157 -0.10486356 -0.03823424 0.056655694 0.04975382 0.002548416 -0.14029814
0.07629541 -0.14110838 -0.06493984 0.04726621 -0.05588537 0.018883372 -0.06276109 0.09168783
0.042640917 -0.020474253 0.055941716 -0.083880946 -0.060776558 0.12026487 -0.113047995 0.10084322
0.11640611 -0.03636384 0.08673996 0.015894948 0.022905815 -0.025533048 0.023082428 -0.06943676
0.03538666 0.098859064 0.10750657 -0.09181388 -0.12310517 0.06280218 -0.020536972 -0.06918326
0.0066867396 -0.07411811 0.08308274 -0.08220674 -0.14512767 -0.108146556 0.068720065 -0.047625214
0.023274226 0.07576315 -0.06433409 0.020677226 0.07642692 -0.09162248 0.0044885254 0.070862524
0.037503995 0.14049904 -0.013519298 -0.052432276 0.110754184 0.09086013 -0.0598506 0.12645838
-0.0190357 0.0073293173 -3.0383085e-06 0.059138346 -0.1524021 0.1072359 0.02274661 -0.06960686
0.005384095 0.19061513 0.037604548 0.07719449 0.11132562 -0.0068475753 0.039860502 -0.004036835
0.15321745 0.21252657 -0.020283675 -0.018002616 -0.038702622 0.036960702 -0.007646838 -0.056896653
0.02368303 0.0743176 0.07651263 0.035832357 -0.08444086 -0.016256595 0.116466194 -0.06515587
-0.13767526 -0.008952864 -0.047897264 0.12915091 0.17213811 0.09523035 0.021981144 0.15789118
0.03075599 0.09162248 -0.0031006369 -0.05674901 0.021605391 0.018999647 0.088550754 -0.038708523
0.033328157 -0.046669878 -0.001393848 -0.025200479 0.08458918 0.119507276 -0.07173751 0.17297116
